backend/model.pth (torch, 38708 bytes, 6 tensors)

conv1.weight f4 [8, 1, 3, 3]
000000 51 a1 5f 3e 24 96 05 3f b0 b7 18 3e d6 f5 d0 be
       0.21838881 0.5218222 0.14913821 -0.40812558
000010 57 85 a1 3e 62 89 b9 3d a2 00 33 bf 39 74 93 be
       0.31547043 0.09059407 -0.6992284 -0.28799608
000020 13 56 7e 3d b6 53 ac b8 29 8c 13 bf 76 b3 d3 be
       0.062093806 -8.2171915e-05 -0.5763574 -0.41347855
000030 60 bd 42 3e 43 28 01 be a0 f2 1c 3e 8b 34 60 3e
       0.19017553 -0.12613015 0.15326929 0.21895044
000040 19 54 f0 3e ad 5c 8a 3e 82 ad 71 be 2d 6b c5 be
       0.4693916 0.2702383 -0.23601344 -0.3855833
000050 2f 86 8c ba 9e 2f 15 bf 4d 22 12 be 36 f0 c4 3e
       -0.0010721142 -0.58275783 -0.14270897 0.38464516
000060 f2 6d 6b 3e 14 e1 1a 3f 9c 29 81 3e f8 16 f4 be
       0.2299116 0.6049969 0.25227058 -0.47673774
000070 10 56 c6 be 06 9a c3 3c 17 5e 58 be 5f c4 9d be
       -0.38737535 0.023877155 -0.21129642 -0.30813882
000080 03 d7 0c bf 0e 85 f1 3e 6f 06 e9 3e 0a b7 ca bc
       -0.5501558 0.47171825 0.4551272 -0.024745483
000090 b7 90 03 3f 54 92 a0 3e c7 28 be 3e d7 a6 ec 3d
       0.5139269 0.3136164 0.37140486 0.1155526
0000a0 c9 a8 a3 bd c5 cd 8a be 81 28 f0 be 23 de d5 be
       -0.079911776 -0.27110115 -0.46905902 -0.4177104
0000b0 ea 7a 35 be 75 08 3a be a8 a3 ce bd 4a 6c d9 3e
       -0.17722669 -0.18167289 -0.10089809 0.4246543
0000c0 b7 fd 15 3e 70 c7 dd 3e b6 1f 2b 3d 0f a8 26 3e
       0.14647566 0.4331622 0.04177829 0.16275047
0000d0 20 2c 67 3e 3f 81 ce 3d 3f 1b 2c 3c 6b 80 0e bd
       0.22575426 0.100832455 0.010504543 -0.034790438
0000e0 20 16 b2 bd 8a 25 c3 3e 93 c5 cf 3e 22 ed e0 3e
       -0.08695626 0.38114578 0.40580425 0.43930918
0000f0 e3 5f 66 be ad db 56 3d 00 b1 e6 3e 84 19 b2 be
       -0.22497515 0.052455593 0.45056915 -0.34785092
000100 f4 a9 06 bf c7 27 bc be f6 25 af be 45 25 95 be
       -0.5260308 -0.36749098 -0.3420865 -0.29129997
000110 54 d8 99 3e e9 bf e5 be 1d 6f e1 bd dc 75 11 3f
       0.30047858 -0.44872978 -0.11007521 0.56820464

conv1.bias f4 [8]
000000 b2 c2 5f bd 38 0b 8f 3d 3e f4 0e 3d cb af 2e 3e
       -0.054629035 0.06984562 0.034900896 0.17059247
000010 d9 65 3d 3e 5e 70 c9 3e 07 83 0a 3e fb 12 51 3e
       0.18495883 0.39343542 0.13526545 0.20417397

conv2.weight f4 [16, 8, 3, 3]
000000 1b ae 32 be 57 fc 84 be dd 94 df be 1a 3a 94 3d
       -0.17449228 -0.2597377 -0.4366826 0.072376445
000010 4b e8 d3 3d 81 b1 36 3d 04 8e 74 3e 12 06 2f bb
       0.10347041 0.044602875 0.238823 -0.00267065
000020 9c 81 dd bc bc 2e 91 bb a2 10 2a 3e 48 49 b8 3d
       -0.027039342 -0.00443062 0.16607907 0.08998352
000030 50 2c 2c 3e ea f0 72 3d ef a9 56 bd b4 21 c3 bd
       0.16813779 0.059311785 -0.052408155 -0.09527913
000040 5e 85 8b 3d b8 e7 64 bb 09 f0 0b bd 11 a4 29 3e
       0.06812547 -0.0034928154 -0.034164462 0.16566493
000050 72 de a0 3d 9c 8f 0e 3c 8a c5 5c 3d ba f5 cc bc
       0.07854928 0.008701231 0.053899325 -0.025019515
000060 d5 69 e0 bd 13 c7 4c bd 1e 82 22 3e f5 1c af 3d
       -0.10957686 -0.04999454 0.15869948 0.08550445
000070 16 c8 ec 3c c0 0a 0e 3e c3 03 36 3e b2 a2 c6 bd
       0.028904002 0.13871288 0.17774872 -0.096990004
000080 86 c6 8a 3d 30 d0 d4 bd 2e 41 98 bc 3d fe 9c 3d
       0.067761466 -0.10391271 -0.018585768 0.076656796
000090 21 84 eb b9 7f 0b 34 be b0 d1 ed bd 3b 0d c1 3d
       -0.00044921137 -0.1758251 -0.1161226 0.09426352
0000a0 28 e5 47 3c a4 e0 a8 bd 78 de 4c 3e b3 54 b4 3d
       0.012200631 -0.08245972 0.2000674 0.088052176
0000b0 2b e7 b4 bd 20 e6 c0 bd b4 3b 37 be 65 a1 39 bd
       -0.08833154 -0.09418893 -0.17893869 -0.045319933
0000c0 d2 ea a1 3b 0a 92 c7 3c 78 af b5 3d ca 56 43 be
       0.004941323 0.024361629 0.08871359 -0.19076076
0000d0 1a bd 3e be 45 4f bb bd 1e dd 89 bd b7 43 c0 bd
       -0.18626824 -0.09145979 -0.06731628 -0.093879156
0000e0 a9 36 08 3d 55 45 af 3d d9 86 04 3e 00 1c a9 3c
       0.033255253 0.08558146 0.12942065 0.020643234
0000f0 43 a9 67 be 9f 5f 09 bd 4e 83 aa bd f2 bc ea 3c
       -0.22623162 -0.033538457 -0.08325826 0.02865455
000100 f5 57 41 3c a4 89 51 3c 1f e3 1c bd 8f 63 ca bd
       0.011800756 0.012789164 -0.038302537 -0.098822705
000110 44 0e 85 bc 92 ae 24 bd ba c4 14 bc 93 87 b6 bd
       -0.016242154 -0.040205546 -0.009080106 -0.089125775
000120 b7 26 8f 3e f5 af 4c bd 46 85 9c bd ad 23 5f 3e
       0.27959225 -0.049972493 -0.076426074 0.21790953
000130 6d 21 ce 3d 2f 18 8f 3d d8 9d 52 3e d9 5a c6 3b
       0.10064969 0.069870345 0.20568025 0.0060533104
000140 08 99 a8 bd bc 29 57 3e 55 7b 07 3e bb 2b bd 3d
       -0.082323134 0.21012014 0.13230641 0.092368565
000150 9d be 33 3d f8 76 66 3e 41 01 73 be 7d c0 e3 bd
       0.043882955 0.2250632 -0.23730947 -0.111206986
000160 0f 95 75 be e5 45 28 be d5 53 0e be 94 f1 45 3d
       -0.23982643 -0.16432913 -0.13899167 0.04832609
000170 18 8c 2a 3e 66 df 59 be 34 b6 bc 3d 64 39 0e be
       0.16655004 -0.21276626 0.0921444 -0.1388908
000180 7d bd b9 be d9 e1 93 be c8 5b 1f 3c 67 9b 07 be
       -0.3627738 -0.28883246 0.009726472 -0.13242875
000190 44 cb 16 bc 9a 5a d6 bb 24 14 b6 3d 09 6b f1 bd
       -0.009203736 -0.0065415623 0.0889056 -0.117879935
0001a0 3d bf 69 bd bb 86 ba 3d 16 eb 03 ba c9 23 e0 bd
       -0.057067145 0.09107729 -0.0005032284 -0.109443255
0001b0 3f 0a e5 3c 56 c5 c6 bd 38 77 1d 3e 8e b6 bc 3b
       0.027958987 -0.097056076 0.1537751 0.005759067
0001c0 ec 1f 3a 3e 5c af 46 3e 76 a7 c0 3c 32 9f a4 3c
       0.1817624 0.19402832 0.023517352 0.020095441
0001d0 4d 0b 51 3d 21 1e ec 3d 5b b9 12 3e d8 f3 06 3d
       0.051036168 0.11529184 0.1432852 0.03294739
0001e0 5d 1b 2f be 4a 7b e7 3c 4a f4 24 bc 46 ff 8b be
       -0.17100282 0.028257031 -0.010068009 -0.27343196
0001f0 94 f4 47 be c7 e7 6d be 1b eb c2 3d af 55 93 3d
       -0.19526893 -0.23232947 0.09517499 0.07194077
000200 1f 44 5b 3b a9 eb 8f bd 73 b4 54 bd 3c 30 4b bd
       0.0033457351 -0.070273705 -0.051929902 -0.049606547
000210 f5 cd 8b be c4 c1 03 be e8 a9 57 bd c2 97 8a be
       -0.2730557 -0.12866884 -0.05265227 -0.27068907
000220 fb 1d 20 be cf b5 c6 3d 7b 7c 81 bd 9e ea dc bd
       -0.15636437 0.09702646 -0.06322571 -0.10786937
000230 1b c1 42 bd 34 42 b0 3d 98 ab eb 3c 03 e8 18 3e
       -0.04754744 0.08606377 0.028768346 0.14932255
000240 17 f1 9a 3d c1 64 9d 3d b4 fc c4 bd d2 e3 89 3e
       0.075655155 0.07685233 -0.09618512 0.26931626
000250 6f 8c e1 3e 2e cf 99 bd df 56 ad bd d5 77 56 3e
       0.44052455 -0.075102195 -0.08463835 0.2094415
000260 12 e2 82 3e e2 d9 e7 3d 2c da 18 3e 87 3e 66 3d
       0.25563103 0.11320855 0.14926976 0.056211974
000270 48 da 4e be 80 e1 3e 3e 3f d2 aa 3e fc ae 55 bd
       -0.20200455 0.18640709 0.3336353 -0.05216883
000280 84 33 ab bd 5f e3 bc 3e d9 c0 d3 bb 6a de 9e bd
       -0.08359435 0.3689222 -0.006462198 -0.07757266
000290 74 5b 28 be 10 9e de bd 6d 00 ad be 57 6c c5 bc
       -0.16441137 -0.10869992 -0.33789387 -0.024099512
0002a0 44 ab 06 be d4 9a a9 bd 79 19 2f be 6f 1a 90 bd
       -0.1315127 -0.08281484 -0.17099561 -0.07036292
0002b0 40 d0 0b 3e 93 28 08 3e 75 c4 e6 bd 93 c7 fa bc
       0.1365366 0.13296728 -0.1126794 -0.030612743
0002c0 12 84 d4 3e 83 dc 60 3d e0 8c 1f be 1b 26 4a 3d
       0.41507012 0.054897796 -0.15581083 0.049352746
0002d0 46 07 d4 bc 96 2d a4 be f1 99 d2 3d 97 27 7f 3c
       -0.025882374 -0.3206603 0.10283268 0.015573404
0002e0 03 cd 5a be 77 40 8a be 9b 36 67 3d c6 13 8f bd
       -0.21367268 -0.27002308 0.05644856 -0.06986193
0002f0 fd 76 06 be 85 a3 e9 bc 95 9e 6a bd af 4f 72 be
       -0.13131328 -0.028520355 -0.05728014 -0.2366321
000300 89 ad 36 be 82 32 1b 3d 41 4b a5 3d 78 0f 98 bd
       -0.17839636 0.037889965 0.08070994 -0.074248254
000310 99 a2 ed bc fb f9 c5 bb 81 bc 4c 3e cc 26 f8 3d
       -0.029008197 -0.006041763 0.19993784 0.12116775
000320 35 dd 98 be 07 52 6b 3d 7b 70 14 3e e7 a1 4b 3e
       -0.29856268 0.057451274 0.14496033 0.1988598
000330 b6 3c 8b be ee ba d6 3c ae 6d c8 3d 51 37 08 bc
       -0.27194756 0.026212182 0.09786545 -0.00831397
000340 b9 de 87 3d e8 c0 e7 bd 04 9c 37 be 5f 49 a9 be
       0.06634278 -0.11316091 -0.17930609 -0.3306379
000350 0a cb 62 be 6b 6f 81 3d bd bd 68 be 0e 4c 64 be
       -0.22147766 0.063200794 -0.2272863 -0.22294638
000360 b3 31 24 be 27 87 d3 be f7 47 c5 be b6 42 af be
       -0.16034584 -0.4131405 -0.38531467 -0.34230584
000370 f1 c2 63 be b5 30 c6 bc 81 2c cf 3d 6a f8 a3 3d
       -0.22242333 -0.024193147 0.1011591 0.080063656
000380 48 92 2f 3e 58 61 e4 bc ba 27 08 bd 74 57 5f 3e
       0.17145646 -0.027878448 -0.03324101 0.21810704
000390 05 95 64 3d 3e 32 88 3d 9e 9a 19 be 4e 7d 56 bd
       0.05580618 0.06650208 -0.15000388 -0.052365594
0003a0 30 7c 85 be 04 1e 33 be 9b 0e f2 3d 06 73 e3 3d
       -0.2607131 -0.17491919 0.11819192 0.11105923
0003b0 bc 40 04 3e 21 b9 9d 3d f1 34 7d ba 38 68 89 bd
       0.12915319 0.07701326 -0.0009659073 -0.06709331
0003c0 45 5e 84 bd f6 5e 8e be 7d db 4f be 7e 0b 16 be
       -0.06463293 -0.27806824 -0.20298572 -0.14652821
0003d0 9a 83 47 3c fb ad 55 bb 34 3f b2 3d 58 50 39 be
       0.012177372 -0.003260492 0.08703461 -0.18097055
0003e0 8a 49 12 be 2a 84 f9 bc e2 54 61 3b a7 a0 8f bd
       -0.14285865 -0.030458529 0.003438287 -0.07013064
0003f0 d6 d9 9d bb d1 3b 4b bd 0d 74 8f be b6 71 9d bd
       -0.004817228 -0.049617592 -0.28018227 -0.07687704

conv2.bias f4 [16]
000000 83 9c 8e bd 99 7f f2 bc 0d 34 1f 3d 98 76 69 bd
       -0.06963446 -0.029601859 0.038868 -0.056997865
000010 84 f2 19 be 9c cd c5 bd f9 ca 7d bd 5b 6e 87 3d
       -0.15033919 -0.096583575 -0.061961148 0.066128455
000020 6c 69 41 be 02 6d 71 bd ac fd d9 bd 86 6a 03 be
       -0.18887872 -0.05894185 -0.10644087 -0.12833604
000030 0a bc a9 bd 44 ab a3 bd 28 a1 ad 3c 31 24 a4 bd
       -0.08287819 -0.07991651 0.02119501 -0.080147155

fc1.weight f4 [10, 784]
000000 37 aa 4c bb 46 88 5f bd b6 79 3d bd 6a 91 d0 bc
       -0.0031229386 -0.05457332 -0.04625865 -0.025459964
000010 42 6b 04 bd 3e 2b 10 be 33 ff 93 bd 9d aa 0e 3d
       -0.03232885 -0.14078996 -0.0722641 0.03483068
000020 33 75 ca ba a4 3a f4 bd 80 10 87 bd c9 fc dd bc
       -0.0015446305 -0.11925247 -0.06594944 -0.027098076
000030 45 7e 02 bc f4 a5 09 3d a2 82 c8 bd 79 50 41 3d
       -0.007964675 0.03360553 -0.09790541 0.047195885
000040 7c 2d 4b bc 74 e0 82 bd c6 af 55 3d 7d a7 2a 3d
       -0.012400981 -0.06390467 0.052169584 0.041663636
000050 06 b9 92 3c 64 07 b7 bb 9d 31 21 3d 03 55 ab bd
       0.017910492 -0.005585598 0.039353956 -0.08365824
000060 2d b0 fb bd f8 f9 f7 bd 29 10 1e 3d a5 ea 63 bd
       -0.12289462 -0.12108225 0.03858963 -0.055643696
000070 cc d8 77 3d 98 9d 8c bd 93 82 85 bd 4b b9 58 3d
       0.060509488 -0.06865996 -0.06519046 0.052911084
000080 3a 14 09 bc 9a e3 4b bd 13 86 03 be 54 eb c8 3b
       -0.008366639 -0.049777605 -0.12844114 0.006131569
000090 f9 3b 40 bd 5d 01 a4 bd 9e fa 83 3c 70 33 9f ba
       -0.046932194 -0.080080725 0.016110715 -0.0012146067
0000a0 dd 75 8b bd 3c b6 6b bd 48 7d a1 3c e8 26 0e bb
       -0.0680959 -0.05754684 0.019713059 -0.002169067
0000b0 50 cc 07 bd 5b 85 00 3c 2a c6 9c 3d ae b1 6c bb
       -0.033153832 0.007844294 0.07654984 -0.0036116648
0000c0 43 e4 c8 3b c3 b7 16 3c d2 ad ae 3c 6e 42 97 3c
       0.0061307265 0.009199086 0.021323118 0.018464293
0000d0 de 67 95 3d b3 79 81 3d be e8 bc 3c 20 72 30 3d
       0.07295202 0.063220404 0.023060199 0.043077588
0000e0 bd f6 0a 3d aa d9 f2 bd 6a 12 5c be 8e 0d 54 3c
       0.033926714 -0.118579224 -0.214914 0.012942685
0000f0 41 82 75 bd 36 cb 06 be 31 2e 59 bd b4 ee ca 3d
       -0.059938673 -0.13163456 -0.053022567 0.0990881
000100 c2 c7 ca bd 28 ee 09 bd ef d4 fb bc f1 da 7d bd
       -0.09901382 -0.03367439 -0.030741183 -0.061976377
000110 aa 22 99 bd 82 45 01 3d 95 2f 87 bd 67 4a 4c be
       -0.07477315 0.03156043 -0.066008724 -0.19950257
000120 d2 3f eb bd 8b 18 a3 bd 6d 03 fb bd 8e 69 40 3d
       -0.11486782 -0.079636656 -0.12256513 0.046975665
000130 b9 69 43 bd d4 ec 00 bb b7 7b f9 bc 4e a4 c1 bc
       -0.047708247 -0.001967241 -0.0304545 -0.023637917
000140 f2 f0 81 bb 01 a3 68 3d 0e 12 a4 3d d0 f3 c0 3b
       -0.0039654905 0.056796078 0.08011256 0.0058884397
000150 d0 b3 6b bc 21 de e3 3c 6b 65 46 3d 22 35 ef 3d
       -0.014386132 0.02781588 0.048436563 0.11680056
000160 8e 1c 00 3d ef b8 dd 3b 86 dc ff 3b d4 4c 2d bc
       0.031277232 0.0067664306 0.007808271 -0.010577399
000170 52 49 61 3c 19 16 d8 3c 0b 41 99 3d c7 2f ae 3a
       0.013750391 0.026377724 0.07483109 0.0013289385
000180 a8 15 81 bd b2 88 89 bd 53 6a 28 bd 08 2b 04 be
       -0.06302959 -0.06715526 -0.041117024 -0.1290704
000190 bb 42 18 bd a6 7c 89 bd 23 9c b3 bd a5 be 93 ba
       -0.037173014 -0.06713228 -0.08770015 -0.0011272026
0001a0 5a b1 fb 3c 16 18 82 bd fe a4 37 bd e9 0e 12 bd
       0.030724216 -0.0635225 -0.044835083 -0.03565875
0001b0 c6 ff 57 3d 72 08 94 3d d7 20 e6 3d d2 7a a6 bc
       0.05273416 0.07228173 0.112367325 -0.020322237
0001c0 30 a3 73 bd 46 70 0c 3d 01 04 0e bd 2a ff fc 3d
       -0.0594818 0.03428676 -0.034671787 0.12353356
0001d0 35 57 14 3e e6 51 b0 3d ce 5a 83 3d fb dd e8 bd
       0.14486392 0.08609371 0.06413804 -0.113704644
0001e0 a5 cd ad bc 26 f7 93 bc 0e fe ca bd e7 34 86 bc
       -0.021216223 -0.018062185 -0.09911738 -0.016382648
0001f0 9f ef 73 3d 3b 7b cd bc 54 32 06 bd 76 99 80 bc
       0.059554692 -0.025083175 -0.03276284 -0.015698176
000200 fd d8 68 3d df fa 74 3d 0e 9d cf bd c9 8c ba bd
       0.05684756 0.05980956 -0.10137378 -0.09108884
000210 26 e8 b2 bd 7d 24 d3 bb 58 f5 8e bd 09 44 10 3d
       -0.08735685 -0.0064435587 -0.06980389 0.035221133
000220 93 e9 fa 3d 75 04 81 bd 66 1b 67 be 84 06 3c be
       0.12251582 -0.06299678 -0.22569045 -0.1836186
000230 a5 99 29 bc 93 b5 76 bc 8b 8c 92 bd a9 42 0f be
       -0.010351573 -0.015057939 -0.07155713 -0.13990273
000240 cc 58 18 be ca 22 46 be 6f 74 ad bb 72 31 98 3c
       -0.14877623 -0.19349208 -0.005293421 0.018578265
000250 e4 8a cc bd 2c 30 8d bd e2 ec 05 bd 77 21 f0 bd
       -0.09987429 -0.06893954 -0.032696612 -0.11725133
000260 fc fc 08 be f1 a6 4f bd 79 65 20 3d 07 d8 e5 3c
       -0.13377756 -0.050696317 0.039159272 0.028057111
000270 50 42 34 bc b9 15 6d bd ed 9b 42 bd 73 88 f3 bc
       -0.011002138 -0.057882044 -0.047511984 -0.02972815
000280 ee 8d b2 3c cf a4 20 be 3e 1c b2 3d 0f 36 29 bd
       0.021796193 -0.1568787 0.08696793 -0.04131132
000290 ba 14 a5 bd ba bb 02 be 5d ed 5d be 34 64 fe bd
       -0.08060594 -0.12766925 -0.21672578 -0.12421456
0002a0 15 f0 e7 bd 1d 86 a8 3d 75 5f 9f 3c f8 bb 83 be
       -0.11325089 0.08228705 0.019454697 -0.25729346
0002b0 b4 b4 cb bd ad 5c 43 3c 7c a5 0e bd fe ea 2e bd
       -0.09946576 0.011923951 -0.034825787 -0.042704575
0002c0 d0 b6 dc bd bd 64 a4 bb 1e 83 ff bc 8f 8a b7 3c
       -0.10777056 -0.0050168918 -0.031190451 0.022404937
0002d0 e6 97 bd 3c af cc c5 bd cb 78 6b 3c 6c 8e a8 bd
       0.02314372 -0.09658181 0.014372061 -0.0823029
0002e0 81 77 d5 bc b1 55 49 3d 6e 6a 7e 3d 60 6f b9 bb
       -0.02605796 0.049153987 0.062113218 -0.005659029
0002f0 60 c7 ff 3b e9 d0 be 39 15 0c 53 be 6e 24 ac be
       0.00780575 0.00036395274 -0.20610078 -0.33621544
000300 dd a4 46 be 9d c1 97 bd eb 6f 47 bd be 46 90 3d
       -0.19398828 -0.07409976 -0.048690718 0.07044743
000310 81 0c 11 3d 16 5b a5 3d ca 83 14 bc 91 39 b0 3c
       0.035412315 0.08074014 -0.009064624 0.021511825
000320 1a f0 9a 3c 51 bb ca 3d c8 f5 43 3b 53 22 cc bc
       0.018913317 0.09899009 0.0029901136 -0.02491871
000330 69 e4 b6 3b 50 14 50 be 39 fd 19 3c 2d 0e f2 3b
       0.005581428 -0.20320249 0.009398752 0.007386944
000340 06 59 16 bd 16 f9 51 bd cd 0e 1d 3d 4e 76 85 bd
       -0.036705993 -0.051262937 0.038344193 -0.065167055
000350 92 b9 a2 bd bd bd f4 3b 8c 56 80 bd 51 0f ee bd
       -0.07945551 0.0074689076 -0.062665075 -0.11624015
000360 97 60 37 3d b6 84 69 bd c1 d2 97 bd 15 db 44 3c
       0.04476985 -0.05701133 -0.07413245 0.012015124
000370 ad fb 2c bd 35 6e 1f be 33 9d ba 3c 52 58 f6 bb
       -0.042232204 -0.15569384 0.022780037 -0.007517853
000380 32 5d 88 bd 16 9b 95 3b 8d 8c 11 bd b3 75 79 bd
       -0.066584006 0.004565607 -0.03553443 -0.060903262
000390 02 da 8d bd d2 93 42 3d c6 2e 0a bd 0d c1 67 3d
       -0.06926347 0.047504254 -0.033736013 0.056580592
0003a0 4c ad 01 bd 15 91 50 3d b1 62 55 3d cd c6 f0 3c
       -0.03165941 0.05091961 0.052096073 0.02939167
0003b0 bc 69 48 3c 29 69 ae bd 33 85 78 3d a9 d5 ab 3c
       0.01223224 -0.085161515 0.060673904 0.020975905
0003c0 f1 f1 a6 3c 73 85 11 3d 96 0e 77 bc 3d fd 09 be
       0.020379039 0.035527658 -0.015079161 -0.13475509
0003d0 55 02 bf bd 1e 65 9a bd 20 21 27 3d d7 2c 16 bc
       -0.09326617 -0.07538818 0.040803075 -0.009165964
0003e0 e1 5e 98 bc cf 0d dc 3c 9d 40 e9 bb be f6 b2 bd
       -0.01859993 0.026862053 -0.007118298 -0.087384686
0003f0 c6 2e c9 bd e5 31 26 bc 4c a2 b3 bd 99 80 dc 3c
       -0.098233745 -0.010143732 -0.0877119 0.026916789

fc1.bias f4 [10]
000000 be ec 0f 3d 7a 22 dd 3d 3f e3 93 3c 5e ce 59 bd
       0.035137884 0.107975915 0.018052695 -0.053175323
000010 76 10 56 bd c0 30 cd 3c 1e dc 94 bc 85 89 65 bb
       -0.052261792 0.02504766 -0.018171366 -0.0035024595
000020 00 23 f6 bc 2f 67 b6 3c
       -0.030045986 0.022265999
