backend/model.pth (torch, 171700 bytes, 6 tensors)

layer1.weight f4 [50, 784]
000000 64 75 35 bc 83 f4 d5 bb 25 fa da bc 70 98 53 bc
       -0.011075351 -0.006529392 -0.026730606 -0.012914762
000010 df bb b0 3c de cb e5 bc 47 4c b3 3c cb 0d b8 3c
       0.021573959 -0.028051313 0.021886958 0.022467515
000020 cb c6 c7 3b 22 85 8d bc a5 58 9b bc 24 ec 00 bc
       0.006096696 -0.017275397 -0.018963167 -0.0078688
000030 d1 63 00 3d d6 33 0c 3b f1 3d b4 3c 66 8b 66 3c
       0.031345192 0.0021393201 0.022002192 0.014071321
000040 f8 b2 05 3c c4 a5 96 3b be bf 71 bb 5d 61 d2 3c
       0.008160345 0.0045973975 -0.003688797 0.025681192
000050 12 f7 2d 3d dd 40 8c 3c 64 24 0a bb be 64 20 3d
       0.042471953 0.017120773 -0.002107882 0.039158575
000060 dc b7 0d 3d 17 e9 00 3d 13 96 fd 3b 09 a4 ef 3c
       0.03459917 0.03147229 0.0077388375 0.029253023
000070 c5 be e0 3c 79 e5 e9 3c 86 cf 93 3c f0 5c 32 bc
       0.027434716 0.028551804 0.01804329 -0.010886416
000080 0c c8 1b 3d 0b 57 bb 3c 9d 5b cb bc cc ff 3e bc
       0.038032576 0.022868654 -0.024823958 -0.011657666
000090 8f a5 0c 3d 5a 31 54 3c d5 d2 b8 3c 94 fb f7 ba
       0.034337576 0.012951219 0.02256147 -0.0018919581
0000a0 d5 ac a4 bc 46 64 1d 3d b6 ec 53 bc fe 76 1f bc
       -0.020101944 0.038425706 -0.012934854 -0.00973296
0000b0 8e b9 21 3b 33 ae 86 3c 88 9b 4a 3b 0a 60 50 3c
       0.002467725 0.016440487 0.0030915458 0.01271821
0000c0 b1 cd dc bc ed 55 82 bc 95 f2 84 bc f9 b1 fe 3c
       -0.02695355 -0.015910113 -0.016228953 0.031090723
0000d0 83 ab 14 3d 1f c9 ab 3c ba 48 62 bc d7 ce a1 bc
       0.03629638 0.020969925 -0.013811285 -0.01975195
0000e0 dd 10 b3 3c 1c d8 ca 3a 0e 12 0c 3b db 7c b0 bc
       0.021858627 0.0015475783 0.0021373066 -0.02154391
0000f0 10 32 83 bc 32 19 2f 3d 71 09 c5 3c 37 7a 9d 3c
       -0.016015083 0.042748637 0.024052354 0.019223316
000100 5e 32 76 bc bb c9 a7 bc d3 96 de 3b 03 65 c9 3b
       -0.015026657 -0.020481935 0.006792882 0.0061460747
000110 bf 33 70 bc f6 5d 1f 3c 0f fb 69 3b e0 87 20 bc
       -0.014660775 0.009726992 0.003570262 -0.00979802
000120 39 07 aa bc 85 33 c9 bc 94 72 29 3d d4 5c 0d 3d
       -0.020755397 -0.0245607 0.041369036 0.034512356
000130 ff 5e 6d bc f6 8b 0b 3c e8 ce 0d 3d 89 2a b2 bc
       -0.014487981 0.008517256 0.03462115 -0.021748798
000140 96 a5 a4 3c 6c d0 16 bc 85 05 de 3c 8a fc 64 3c
       0.020098489 -0.009204965 0.027102241 0.013976226
000150 24 1d 6e 3c e7 4e 98 3c 88 b1 a4 3c eb c2 15 3d
       0.014533315 0.018592311 0.020104185 0.03656284
000160 de 1a 2a 3c c3 00 b6 bb b9 cb b5 bc 83 62 b3 3c
       0.010382382 -0.00555429 -0.02219187 0.02189756
000170 ac 06 52 bc 5e ce 18 3d 30 43 97 bc 22 a8 d8 bc
       -0.0128189735 0.037306182 -0.018464655 -0.02644736
000180 f4 8d 7a 3c ad 32 d0 bb 65 f7 9d bb 97 c2 83 bb
       0.015292633 -0.0063536973 -0.0048207515 -0.0040209997
000190 00 0b a6 3c 2f 86 27 3c 51 3e 29 3d e5 bb ed 3c
       0.020268917 0.010224863 0.041319195 0.02902026
0001a0 a2 cb af bc b9 44 49 ba b9 2e b5 bc 93 cb 01 3d
       -0.021459404 -0.0007677782 -0.022117006 0.031688284
0001b0 75 37 b4 bc 3a fc 87 3c ae e3 0a 3d c1 e7 d5 3c
       -0.0219991 0.016599763 0.03390854 0.026111485
0001c0 a8 93 6d 3c 0f f6 b7 3c fc 89 1f 3d 36 6e 57 ba
       0.014500536 0.022456197 0.03894995 -0.0008218022
0001d0 7c 4a 2d 3d cd f6 ed 3c ac eb c5 3a d5 32 15 3c
       0.042307362 0.029048348 0.0015100143 0.009106358
0001e0 5e e8 2b 3c d4 1e 78 3c 76 5d 69 bc 61 84 d0 ba
       0.010492412 0.015144069 -0.014243474 -0.0015908593
0001f0 de 83 16 3c 40 82 03 bc cc a5 fb bb 16 3c bd bb
       0.009186713 -0.0080266595 -0.0076796766 -0.005774985
000200 72 03 94 bc 94 c2 b7 ba 8d fe 22 3c b4 59 92 3c
       -0.01806805 -0.0014019781 0.009948385 0.01786504
000210 5d 74 8c bc ca 45 0d 3d 06 12 bd 3c d7 c8 74 bc
       -0.01714533 0.034490384 0.023079883 -0.014940462
000220 b2 58 a2 3c 95 d9 82 3c 9b b8 1f ba 92 dd e3 bc
       0.019817684 0.015972892 -0.0006092877 -0.027815614
000230 93 b5 ba 3c c9 7a 79 bc 67 d5 ee bb 68 d7 04 bc
       0.02279166 -0.015227028 -0.007288623 -0.0081079975
000240 de ad e2 bc a2 8c a0 3c 93 40 b6 bc dc 65 29 3c
       -0.027670797 0.019598309 -0.022247588 0.010339227
000250 72 1e 05 bc de 06 20 3d b7 e3 ed bc 1c 27 ac bc
       -0.0081249345 0.03906905 -0.029039247 -0.021014743
000260 6d 5b 6a bb a0 f7 55 bc ec 9a 2e bd 06 87 a5 bc
       -0.003576006 -0.013059527 -0.042628214 -0.020205986
000270 91 c5 9d bb 57 4c 08 3d be 61 96 3c d4 b4 d8 3c
       -0.0048148115 0.03327593 0.018357154 0.026453413
000280 5d d0 a4 3c 07 fc fa bc 10 8b 4e bc f1 c0 9e bc
       0.020118887 -0.030637754 -0.012606397 -0.019379111
000290 41 03 bc bc d2 3c e1 bc c8 94 e0 bc 80 48 2e 3d
       -0.02295077 -0.027494822 -0.027414694 0.04254961
0002a0 a4 1b 0f bc e6 7e 38 3c 4c 6c ca 3a 5a eb 21 bc
       -0.008734617 0.011260724 0.0015443652 -0.009882772
0002b0 ca ec 5c bc 4c d8 08 3d 9f 8c ec bb 0b 7a b8 bb
       -0.013484189 0.0334094 -0.007218912 -0.005629783
0002c0 d1 5a 97 bb 65 5a e4 bc 67 b0 f0 ba b7 35 1a 3c
       -0.0046189805 -0.027875135 -0.0018363119 0.009412221
0002d0 0b 9f 81 3c c1 dc ae bc 45 fe 28 3c 1e 83 1a bd
       0.015822908 -0.021345498 0.010314529 -0.0377227
0002e0 e0 c5 7d bc d0 97 3d bc 10 e9 f8 bc 0e 90 88 39
       -0.015489072 -0.011571839 -0.03038457 0.0002604727
0002f0 4c 6b c7 3c 5c 0c 87 3b 7d de 21 3b b4 9d aa 3c
       0.024343155 0.0041213464 0.0024699264 0.020827152
000300 20 42 c8 3b 4a 5c 08 3d 08 b7 69 3b b0 bc 63 39
       0.0061113983 0.03329114 0.0035662074 0.00021718699
000310 d1 5e b6 3c 6d 24 bf 3c af 3f c3 bb 95 ef 13 3d
       0.022262009 0.023332799 -0.0059585194 0.036117155
000320 bf 22 7b 3c 54 71 0f 3d be 41 73 3c 01 58 5d ba
       0.015328108 0.035020187 0.014847217 -0.00084435946
000330 a0 88 81 3c 0e 29 da bc 40 40 6b bc 1d 75 a4 bc
       0.015812218 -0.026630905 -0.01435858 -0.020075375
000340 6e 41 da 3b ee 20 91 3b 58 43 f8 bc a1 0b 7a 3b
       0.006660632 0.0044289744 -0.03030555 0.0038153904
000350 eb 4f 1d bd c4 78 cc 3c 86 86 73 bc f1 aa 28 3c
       -0.038406294 0.02495993 -0.014863616 0.010294662
000360 d9 30 9c bc a2 d6 5a 3b 6f 11 99 bb 92 b1 fc bc
       -0.019066261 0.0033392091 -0.0046712677 -0.03084639
000370 1b 2b 23 3c 16 84 84 3b fb b6 a0 bb 9b 27 d3 3c
       0.009959008 0.004044066 -0.0049046255 0.025775721
000380 5e 92 31 3c 96 8a 0d 3c de 81 63 bc c3 73 c2 3b
       0.010838119 0.0086389985 -0.013885943 0.00593421
000390 e0 14 bb b9 ee 80 1b bc 9f 8b cc bb 5e 02 c2 bc
       -0.00035682973 -0.009491188 -0.00624223 -0.02368277
0003a0 60 f3 0a bc 0b f9 02 bd 5e 3b 8c 3a c6 9a 63 3c
       -0.008480877 -0.031975787 0.0010698845 0.013891881
0003b0 c6 6d 69 3c 7f 03 c5 3c 22 c7 1a bd 5c eb 58 b8
       0.014247363 0.024049519 -0.037787564 -5.171761e-05
0003c0 7f 5d 05 bd 88 d6 6a 3a e5 3a c1 bc bb 99 d2 bc
       -0.032559868 0.0008958359 -0.023587653 -0.02570807
0003d0 e9 0b 16 3c 3f cc 52 3c 23 db 90 bb a1 f2 00 bd
       0.009158113 0.012866079 -0.0044206544 -0.03148139
0003e0 53 e8 f8 bc 89 32 ee 3c fb a0 38 b9 b2 84 61 3c
       -0.030384218 0.029076831 -0.00017607577 0.013764547
0003f0 07 a7 de ba 84 af 1c bb de 14 20 3d 19 67 e1 bc
       -0.0016987034 -0.0023908326 0.0390824 -0.027514981

layer1.bias f4 [50]
000000 ea 1d f8 bc 59 d7 00 3d fc 55 a0 3c 59 a8 f4 bc
       -0.030287702 0.03145537 0.01957225 -0.02986543
000010 c8 29 a8 3c c6 69 21 3d 53 99 fe 3c 2b 6c 84 ba
       0.020527735 0.039407514 0.03107897 -0.0010103037
000020 0f 9a 32 3d cb 76 d6 bc c7 17 4a bc c3 23 1b 3b
       0.043603953 -0.026179692 -0.0123347705 0.0023672439
000030 cf 3e 08 3d e5 7f 01 bd 9f 1b 03 bd 51 b1 ce ba
       0.033263024 -0.03161611 -0.032008763 -0.0015769397
000040 7b 92 ec bb 64 9b 5f bb 90 25 1f bd 84 aa 08 3d
       -0.0072196103 -0.003411972 -0.03885418 0.03336574
000050 79 61 05 bd 1e 1d 9d 3c 0f c9 12 bd dc 85 2d 3c
       -0.03256366 0.019178923 -0.035836276 0.010590997
000060 f2 25 c9 3b 4a e0 9b bb d0 dd f1 ba d9 89 b7 3c
       0.0061385566 -0.004756962 -0.0018452946 0.022404598
000070 7c 2a fd 3c b4 85 b6 3b 94 b6 f9 39 0d 92 87 3c
       0.030904047 0.005570138 0.00047629012 0.016549135
000080 75 be 87 3b ac 18 83 3a e1 9f 82 3c 80 ff fc bc
       0.0041425773 0.001000186 0.015945377 -0.03088355
000090 db 97 da 3b 9c 54 83 bc f0 2d 15 bd e1 22 36 bd
       0.0066709346 -0.016031556 -0.036420763 -0.044466857
0000a0 e1 f1 62 bc bd c1 c1 3b db 13 11 bd 71 1c 19 3c
       -0.013851614 0.005912988 -0.035419326 0.00934516
0000b0 20 bc ad 3a ea ac 50 bc 45 3e b4 bc ad 0b 39 3d
       0.0013254918 -0.012736538 -0.022002349 0.04517715
0000c0 c6 a2 70 ba 94 3e 61 3c
       -0.00091795286 0.01374783

layer2.weight f4 [50, 50]
000000 65 60 c6 bd f3 8c 2e be 03 40 6a be 58 fd 8b 3d
       -0.096863545 -0.17045955 -0.22875981 0.06835431
000010 49 5d 04 bd f8 c9 01 3e 32 c2 8b 3c b2 e2 c4 3d
       -0.032315526 0.12674701 0.017060373 0.09613551
000020 e9 93 15 3e c7 2b 9d bd 49 68 c4 3b b5 c2 61 3d
       0.14607204 -0.076743655 0.005993877 0.055117328
000030 87 a3 80 3d 01 55 a3 3b d5 a3 87 bd 62 08 79 3d
       0.0628119 0.0049844985 -0.06623045 0.06079901
000040 7e 97 95 bd 80 4c dd bd a5 ee 39 bd d6 c8 ed bd
       -0.073042855 -0.10805607 -0.045393605 -0.11610572
000050 b8 cc 77 3e 43 c6 58 bd a3 33 d5 3d ed 3c d6 3d
       0.24199188 -0.052923452 0.104102395 0.104608394
000060 81 36 59 3e e0 d9 60 bd 2c 79 96 bc 17 bd 24 3d
       0.21212198 -0.05489528 -0.018368326 0.040219393
000070 15 23 29 3d f1 c2 37 3e 67 5e f9 3d 6e 97 1a be
       0.041293222 0.17945458 0.12176209 -0.15096828
000080 c2 9f fe bd 6d 2c 07 bc 75 3b ef bd 5a 7d 38 3e
       -0.12432815 -0.008250338 -0.116812624 0.18016568
000090 62 cc 08 be d8 73 2a 3e 85 0a aa bd 65 34 cf bd
       -0.13359216 0.16645753 -0.08302788 -0.10117415
0000a0 db 0e b8 bd ae 28 78 be 94 f1 dd 3e 68 97 8e 3c
       -0.089872085 -0.24234268 0.43348372 0.01740618
0000b0 9b a8 48 bd 62 e9 f3 bc 2a de 75 3d dd 4d 34 be
       -0.04898892 -0.029774372 0.060026325 -0.17607827
0000c0 b2 38 79 bd ff 86 5e bc fa 26 fa bc e9 71 b1 3d
       -0.060845084 -0.01358199 -0.030536164 0.08664305
0000d0 c1 5e 9d 3d dd 07 5d 3b d2 bb 9c bc 66 2d fb 3d
       0.076840885 0.003372661 -0.019132528 0.122645184
0000e0 15 3d 07 be e0 f5 29 3e 54 cb d9 bc 54 d9 89 3d
       -0.13206895 0.165977 -0.026586212 0.06730905
0000f0 ac 54 9b be 1f 61 f3 3d 9e 69 1f 3e ab 3e 90 bd
       -0.30338037 0.11883759 0.15567634 -0.07043203
000100 94 20 2e be 45 5c 59 bd f7 f1 c9 bd df 98 d7 3d
       -0.17004615 -0.05306651 -0.09860604 0.10527205
000110 aa 17 d5 be b2 85 4e 3e c6 4d 13 3e eb df 20 3e
       -0.41619617 0.20168188 0.14385137 0.15710418
000120 65 39 da bd a8 29 9e 3e 9e e3 08 bd 63 7c d3 bd
       -0.106554784 0.30891156 -0.033420198 -0.10326459
000130 d8 0c 81 bc af 0c cf 3d 8a 61 e4 3c af 2b 6b 3d
       -0.015753195 0.10109841 0.027878541 0.057414707
000140 2f f0 bc bc b7 ff 1e 3c 82 9c 82 3c 1d 21 ba 3c
       -0.023063747 0.009704522 0.01594377 0.022720868
000150 e7 f7 b9 3c 7a 00 28 be 23 fd 61 be 98 ff d9 3d
       0.022701217 -0.16406432 -0.2206922 0.10644454
000160 aa ee ab bd f4 e2 b0 3d 50 4f bd bd c9 6b 29 bd
       -0.08395131 0.08637038 -0.09243643 -0.041362558
000170 07 08 e2 bd b0 db 80 3d 6c 84 81 bd 82 7d 95 bd
       -0.11036687 0.06291902 -0.063240856 -0.07299329
000180 43 d9 56 3c 7a 0e 9f 3e 9b ad 69 3d 75 69 ed 3d
       0.013113323 0.31065732 0.05705033 0.1159238
000190 49 9c c9 3d 9d 38 a5 bc fe f9 de be 15 8a 67 3e
       0.09844262 -0.020168597 -0.43550104 0.22611268
0001a0 de 44 17 bd 10 11 04 bd b1 99 fb 3d d5 4b 8a be
       -0.03693091 -0.032242835 0.12285174 -0.2701098
0001b0 e8 17 64 3c 3b 3c 52 3e 7d b5 61 3e bd 81 45 3e
       0.013921715 0.20530789 0.22041889 0.19287772
0001c0 75 89 40 be 1b 19 71 3e 43 9c 67 be b7 73 0a 3e
       -0.18802436 0.23544733 -0.22618203 0.13520704
0001d0 31 e8 95 3d 03 47 fa 3d b3 eb f8 3d f0 0d ac be
       0.073196776 0.12220576 0.12154331 -0.33604383
0001e0 1c 51 70 bd 65 75 ed 3c a2 2d 44 bd ba b8 8f 3d
       -0.058671102 0.028986642 -0.04789508 0.07017656
0001f0 58 9d fb bb ba 46 55 3e 46 1e 61 bc 64 ae 13 3e
       -0.007678669 0.20827761 -0.013740128 0.14421993
000200 b8 a9 66 be f3 cb a7 3d c9 75 b6 3d b4 de 51 be
       -0.2252568 0.08193197 0.089091845 -0.20495111
000210 87 7b ab bd 97 11 a4 3d 65 d7 77 be 54 11 ca bd
       -0.0837317 0.080111675 -0.2420326 -0.09866586
000220 4a 5f 6d bd ec 8a 2b 3e d7 0c 1f be 16 de bc bd
       -0.057952203 0.16752213 -0.15532242 -0.09222047
000230 05 15 37 3e 3a b4 3b be 30 13 c2 be a9 1b ad 3d
       0.17879112 -0.1833047 -0.37905264 0.084525414
000240 cf 66 89 bd 7e 4c f3 3d 95 17 98 3d 8d 2e b9 bd
       -0.06709062 0.11879824 0.07426373 -0.09042082
000250 3d db 21 be 84 a9 44 be 2d 5c b9 bd 06 97 e9 bd
       -0.15806289 -0.1920529 -0.09050784 -0.114057586
000260 c5 3e 1b 3d 56 53 24 3c 5d fc 36 bc b6 5c a2 bd
       0.03790166 0.010029634 -0.0111685665 -0.079278395
000270 3e b2 ac 3d 37 9b 94 3e 46 d7 95 bd 5d f5 00 bc
       0.084324345 0.2902467 -0.07316451 -0.007870999
000280 5f 3b 84 bd 9b d0 be 3d 56 f8 f5 3d ff e0 7d bd
       -0.06456637 0.09317132 0.12010257 -0.06198215
000290 93 4b bb 3d 7b 14 f0 3d 29 cd 30 bd ac dc 03 3c
       0.09145274 0.11722656 -0.043164406 0.008048218
0002a0 8c 59 9a bd ca 71 1c 3e 1b 50 28 3e 15 0b a8 bd
       -0.07536611 0.15277782 0.16436808 -0.08205239
0002b0 0c c7 69 be 9f 44 91 bd 02 9b a2 bc 3e 7a 95 be
       -0.22829837 -0.070931666 -0.019849304 -0.29194826
0002c0 6b 98 b2 bc 39 ff ae bd 94 ee 2c be 37 50 ee 3d
       -0.021801194 -0.085447736 -0.16887885 0.116363935
0002d0 c8 b9 08 be c9 40 a4 bd 54 4a c7 bd 64 71 1f 3e
       -0.1335212 -0.08020169 -0.09730974 0.15570599
0002e0 ab 13 60 bd 79 d3 61 bc 51 ce c7 bd df 2f b1 bd
       -0.054706257 -0.013783329 -0.097561486 -0.08651709
0002f0 6f 13 9b bd f2 7e 63 3e f5 9a 42 3e f3 52 da 3d
       -0.07572066 0.22216395 0.19004424 0.106603526
000300 f7 98 86 3e d5 06 09 3e 80 51 d5 bd b3 14 d9 39
       0.26288578 0.13381512 -0.104159355 0.00041404887
000310 04 0c 36 3d d2 28 d3 3e 41 6a 20 3e e5 55 21 be
       0.044445053 0.4124208 0.15665533 -0.15755422
000320 f9 bb fe 3d 5c 43 58 3d c6 ac 05 3e a8 6d 27 be
       0.12438197 0.052798614 0.13054189 -0.16350424
000330 c1 7b bd bd 6f cf 2d 3e 08 5c c3 bc 06 9d 35 be
       -0.0925212 0.16973661 -0.023847595 -0.17735681
000340 71 62 59 3c f2 8a 0a be 37 c4 02 be 3b 46 b1 be
       0.013268099 -0.13529566 -0.12770163 -0.34623894
000350 fa 96 fd 3d f1 66 26 3e f4 d6 77 bd 18 88 53 3d
       0.12382312 0.16250207 -0.06050773 0.05164346
000360 22 e2 32 3d 71 ef e1 3c c6 02 c0 3d 59 52 21 3d
       0.04367269 0.027579995 0.09375529 0.039385173
000370 3c 55 56 3d 89 f4 eb 3d e8 96 17 bd e8 52 c3 bd
       0.05232738 0.11521251 -0.03700915 -0.095372975
000380 81 3b 85 3e 16 15 6d be 20 28 1d be 3b a3 a9 bd
       0.2602196 -0.23152575 -0.15347338 -0.08283087
000390 05 d9 43 3e fe 73 88 bb 96 33 c3 3d f1 61 21 3e
       0.19125755 -0.004164218 0.095313236 0.15760018
0003a0 6e 8e b5 3b 33 e7 4b 3e 6f 64 12 3e 3b e3 d4 3d
       0.0055406606 0.19912414 0.14296125 0.10394903
0003b0 de 32 bf bc 28 80 77 bb ac 85 20 3e f2 e9 6c 3e
       -0.023339685 -0.0037765596 0.15675992 0.23136118
0003c0 f6 e8 7e 3d 6b ce 28 3e 98 52 1b 3e 09 e7 9c 3d
       0.062233888 0.16484992 0.15168226 0.07661254
0003d0 92 9d cb bd 24 29 af 3d 5d fa aa b8 29 ac a4 3d
       -0.099421635 0.08552769 -8.1528655e-05 0.080406494
0003e0 fb 70 c7 3d 25 5c 5e bd ba 5f fd bd f9 21 df bd
       0.09738346 -0.054287095 -0.12371774 -0.10895152
0003f0 8c 4a 75 3d c3 54 ef 3d 91 82 23 be ba e7 99 bc
       0.059885547 0.11686089 -0.15967776 -0.018787254

layer2.bias f4 [50]
000000 55 f1 1c 3e 8b 0a 6c 3d 2d 3a a2 bc 17 3c 57 3d
       0.15326436 0.057627242 -0.019803131 0.05254754
000010 8e 9b 5b bd e0 15 3d bd 69 73 8e 3d df 13 2c 3e
       -0.053615145 -0.04616344 0.069556065 0.16804455
000020 e4 89 3a bd 46 55 88 3d 17 9c a8 bd f3 8e cd 3c
       -0.04554166 0.066568896 -0.08232897 0.025092578
000030 5b 53 86 bc f0 a3 cd 3d 3b aa d3 3d 49 b2 d7 3c
       -0.016397169 0.10041034 0.10335203 0.02633013
000040 1b e2 e4 3d b6 19 09 be 7b 79 24 be d7 4b 1c be
       0.11175939 -0.13388714 -0.16061966 -0.15263306
000050 c9 8c bb bd f3 52 da bd 95 fa 87 3d f1 a9 20 bd
       -0.09157712 -0.106603526 0.066395916 -0.03922457
000060 8a 71 71 3d a0 5e 92 3d a3 76 2a bd b8 5c b2 bc
       0.05894617 0.071469545 -0.041617047 -0.021772727
000070 25 d7 b1 bd 55 dd 10 3e 54 71 7d bd 28 c6 91 3c
       -0.08683614 0.14146931 -0.061875656 0.017794684
000080 eb bd f8 bc 85 1d 9f bc aa 2a 55 3e be f5 86 bc
       -0.030363997 -0.019423256 0.20817056 -0.0164746
000090 a0 02 e4 bd e7 ab 4a 3d a4 af dd bd cd 6e d5 bd
       -0.11133313 0.049480345 -0.108245164 -0.10421524
0000a0 b5 a2 00 bc a9 23 26 be b1 87 f8 bd b0 7a 57 3b
       -0.007851292 -0.16224541 -0.12135256 0.0032879524
0000b0 bd 3c 2b bd 6b 7d ca 3d 44 a4 a2 bc 1e 59 59 bc
       -0.04180597 0.09887203 -0.019853719 -0.013265876
0000c0 3b 25 cb bc 1c 3d 9d 3c
       -0.024798026 0.019194178

layer3.weight f4 [10, 50]
000000 8e 94 9a 3c 3b 0e 2c bc 61 54 7d 3c 36 88 f5 bd
       0.018869665 -0.01050144 0.015462012 -0.11988871
000010 39 15 01 3e a2 e4 6e bc aa 06 4d be d7 35 68 3c
       0.12605752 -0.0145808775 -0.20022073 0.014172993
000020 5b fd b1 3c 2c 58 f2 bd 67 83 a6 be 81 a7 98 bd
       0.021727255 -0.11833224 -0.32522127 -0.07453824
000030 4a a5 a6 3d 6e 00 16 3e d3 27 3a 3e a7 b3 f9 bd
       0.08136995 0.14648601 0.18179254 -0.12192469
000040 be 1c 7f 3d 5d 18 9a bd 88 5a cc 3d 82 9e 63 be
       0.06228327 -0.07524178 0.09978205 -0.22228435
000050 07 30 37 3e 9f 95 6a bd 85 5b df 3d 1a 15 a8 3d
       0.17889415 -0.057271596 0.10906128 0.0820715
000060 44 37 cb 3d 25 e2 03 3e 70 47 a3 bd 37 ed 99 3d
       0.099226505 0.12879236 -0.0797261 0.07515948
000070 5a 61 83 3d 1b 2b 05 be d5 55 49 3e a3 8d c1 3d
       0.06415053 -0.13004725 0.19661649 0.09450843
000080 88 2e 8d 3e db 0e 9d be b8 1b 6d be 79 05 11 be
       0.27574563 -0.30675396 -0.23155105 -0.14162244
000090 e4 17 02 be e1 75 56 be e8 4d 09 3e 59 40 29 be
       -0.12704426 -0.20943405 0.13408625 -0.16528453
0000a0 c7 2c 78 be 9b 3d 83 bd 02 56 10 3e 07 0f fc ba
       -0.24235831 -0.06408235 0.1409531 -0.0019230553
0000b0 04 65 fa bc 5a a7 90 be a8 cb b7 bd 97 47 7d 3d
       -0.030565746 -0.2825268 -0.08974391 0.06183585
0000c0 5d 65 8d be 50 cd 2e 3e 3d d9 9c bc 85 38 39 3e
       -0.27616397 0.17070508 -0.019146556 0.18087967
0000d0 02 34 8c 3e 71 80 c5 3c 80 fd 4a be a2 c8 a7 3d
       0.2738343 0.024109097 -0.19823265 0.081925645
0000e0 32 a4 1f bc e3 52 b3 3d a5 f0 33 bc a3 47 cb 3d
       -0.009743737 0.08756044 -0.010982667 0.09925773
0000f0 eb ab 20 3d 37 51 b5 bd 1b 15 81 3e 9a 25 db bd
       0.039226454 -0.08853381 0.25211415 -0.10700531
000100 e1 b7 99 be c5 39 ac bc 41 47 86 be f1 e2 47 3e
       -0.300231 -0.02102364 -0.26226237 0.19520165
000110 d1 22 fa bd 90 f5 64 3e d2 60 03 bd 72 ce 71 bd
       -0.12213672 0.223593 -0.032074757 -0.059034772
000120 24 9f f8 bd ce 77 48 bd 2a 12 6c 3d 25 70 de bd
       -0.12139729 -0.04894238 0.05763451 -0.108612336
000130 81 d3 1a be 2b bc aa bd cd 64 af be fe dc 8f bd
       -0.15119745 -0.083366714 -0.34256592 -0.07024573
000140 43 88 31 bd 19 43 64 be 59 45 1f bf f8 8c 65 be
       -0.04334284 -0.2229122 -0.6221519 -0.22417057
000150 ff 58 ef 3d 7a 43 c9 bc 92 d5 af be 06 53 52 3e
       0.116868965 -0.024568308 -0.3434263 0.20539483
000160 41 3a 6a 3e 7b d3 ca bd 65 d9 8a 3c a9 ab b7 3d
       0.22873785 -0.09903618 0.016949365 0.089682885
000170 dc e8 8e bc df 01 a2 be 8f 07 10 3e a2 f7 31 3e
       -0.01744502 -0.31642053 0.14065383 0.1737962
000180 2f 12 fd bc b5 d8 6a be a0 bc 02 3d 48 66 de 3d
       -0.03089246 -0.2293423 0.031918168 0.10859352
000190 cb da a8 3d 0f c7 5d be 88 34 a4 bd 34 a0 07 3e
       0.082448564 -0.21657966 -0.08017832 0.13244706
0001a0 5a d9 23 3e 1e 21 34 be 15 f0 32 3d a6 24 8c be
       0.16000882 -0.17590758 0.04368599 -0.2737171
0001b0 aa 42 19 3e dc 09 32 be 4c 40 a1 be ae 63 44 3c
       0.14966837 -0.17386574 -0.31494367 0.011986656
0001c0 b8 36 3a be 58 f6 cf 3d cf 71 53 be 01 6b 5c 3e
       -0.18184936 0.10154408 -0.20648883 0.21525194
0001d0 01 88 03 3e f5 4c d9 3d 8d fc 94 be 7e 01 da 3d
       0.1284485 0.106103815 -0.2909893 0.10644816
0001e0 9d a4 38 be 58 7a 2b 3c 74 90 40 3e 9b 99 6e bb
       -0.18031545 0.010466181 0.18805104 -0.0036407474
0001f0 1e c2 2e be 37 e0 b3 3d b1 c7 4e be 6f ed bd 3d
       -0.17066237 0.08783 -0.20193364 0.092738025
000200 7c 38 01 3d f1 5f 16 be 87 7d 92 bd 77 54 ca 3d
       0.03154801 -0.14685036 -0.07152849 0.09879392
000210 ba 66 93 bb 31 6a 0b bc 24 40 fe 3c 7a b9 72 3e
       -0.00449833 -0.008509205 0.031036444 0.23703566
000220 1b d3 2c 3c 69 4e 32 3e 27 49 3e 3e 40 19 c9 3d
       0.010548378 0.17412724 0.18582593 0.09819269
000230 d4 f2 23 3e 83 bf b5 3c 67 f1 b9 be 46 9a b4 3c
       0.160106 0.022186046 -0.36316988 0.02204622
000240 d2 2b 02 3e 07 b3 98 3d 62 ef a2 be bf 58 a1 bd
       0.12712029 0.07456022 -0.3182326 -0.07878255
000250 0e a2 4c 3e 5b a4 c3 bd 9e 7a b1 bd 83 59 71 be
       0.19983694 -0.09552833 -0.086659655 -0.23569302
000260 68 15 66 be 4e 23 82 be 78 a9 01 bd 7f b3 58 3e
       -0.22469103 -0.2541756 -0.03165576 0.21162222
000270 4c fd 77 3b de 5d 64 be a9 90 a1 3c 23 f3 ec 3d
       0.0037840186 -0.22301432 0.0197223 0.11569812
000280 ca 55 47 3e a3 40 1b be 70 08 9f bc e2 2e 12 be
       0.1946632 -0.15161376 -0.019413203 -0.14275697
000290 b1 f4 65 3e c5 94 e6 bc 99 47 00 3e 3d e5 55 be
       0.22456624 -0.02814711 0.12527312 -0.20888229
0002a0 aa c6 1e 3d 21 4b d7 be 4c e4 6d bd ca f0 9a be
       0.03876368 -0.42049506 -0.05807905 -0.30261832
0002b0 73 90 4b 3e 28 93 21 be 0d 15 71 3c a9 a4 1c 3e
       0.19879322 -0.15778792 0.014714492 0.15297188
0002c0 db 96 0e 3e 0d 8e 06 be 77 02 6a be c4 06 46 bd
       0.13924734 -0.13140126 -0.22852503 -0.048346296
0002d0 d5 00 05 3e f3 9b 51 bd 50 96 46 bd a6 86 89 3d
       0.12988599 -0.051174115 -0.048483193 0.06715135
0002e0 0f f4 35 3e d4 42 44 bd d3 d1 4c 3e 69 5a 40 bd
       0.17768882 -0.047915295 0.20001917 -0.04696122
0002f0 83 ae c7 bd 1d bd 5b 3e 60 55 5a 3d 17 e5 44 be
       -0.09750082 0.2145886 0.053304076 -0.19228016
000300 34 55 8f be 60 ac 0c be 74 65 d4 3c 3f d9 39 3e
       -0.27994692 -0.13737631 0.025927283 0.18149279
000310 ac 55 e8 3d 44 a5 01 be a9 4f c5 bc 0a d9 47 3c
       0.113444656 -0.126607 -0.024085836 0.012197742
000320 08 cb 91 bc dc c6 d2 bb de 38 9a 3e b9 c0 89 be
       -0.017797008 -0.0064323973 0.3012151 -0.26904848
000330 bd b0 2b be b2 3b 4d be 27 a9 4b be d6 45 8d 3e
       -0.16766639 -0.20042303 -0.19888745 0.27592343
000340 92 3b e0 bd 51 4c 04 be e5 9a 65 3c b9 34 cc 3d
       -0.10948862 -0.12919737 0.0140139805 0.099709935
000350 a8 ed 89 3e 7f c5 61 bd e8 8f 46 be 5d d7 55 3e
       0.2693913 -0.055119988 -0.19390833 0.20882936
000360 c7 76 9d be bd b3 8a 3d bf 05 cf be 58 90 27 3e
       -0.30754682 0.067725636 -0.4043407 0.16363657
000370 b5 f2 40 be 24 cd 78 3d 45 2e 4e 3e 2c 82 33 3d
       -0.18842585 0.060742512 0.20134838 0.043825313
000380 75 7a 1e 3e 77 3b 1a 3e 1b ef f1 bd 56 80 1c be
       0.15476401 0.15061747 -0.11813184 -0.15283331
000390 eb 0f 97 3c 46 8b 1c 3e 30 7b ed bd 33 aa 01 be
       0.018440207 0.15287504 -0.11595762 -0.12662582
0003a0 fa e2 12 be cf 42 8d 3d 27 ae 96 3d c1 b0 e1 bd
       -0.14344397 0.06897508 0.07357436 -0.11020041
0003b0 e4 f8 21 3e ec d5 2f be 97 57 f0 bd d8 8d 6a be
       0.158176 -0.17171448 -0.117354564 -0.22905672
0003c0 13 92 c6 be 22 99 44 be cf 9c ef 3c 69 26 76 3e
       -0.3878332 -0.1919904 0.029249577 0.2403809
0003d0 b4 49 c3 3b 85 91 24 bd f7 14 9e be bb f1 23 be
       0.005959714 -0.04017784 -0.3087537 -0.16010182
0003e0 c8 a7 2f 3e 34 55 e9 bd 11 4a 33 3e 38 ea 61 3e
       0.17153847 -0.11393204 0.17508723 0.22062004
0003f0 8b 93 75 be 5a f7 31 3e 5c 5d ab bd c3 f3 42 be
       -0.23982064 0.17379513 -0.08367416 -0.190383

layer3.bias f4 [10]
000000 2f 10 eb 3c 5d 97 08 be 66 53 96 39 32 21 85 bd
       0.02869424 -0.1333899 0.00028672366 -0.06500472
000010 20 73 3d 3e 72 76 06 be 38 02 06 be d6 dc eb bd
       0.18500948 -0.13131121 -0.13086784 -0.115167305
000020 ac 0c 11 3d f6 e2 d9 3d
       0.035412475 0.106389925
