backend/model.pth (torch, 38708 bytes, 6 tensors)

conv1.weight f4 [8, 1, 3, 3]
0	0x3ebc8a90	0.36824465
1	0xbd45a3d2	-0.048251934
2	0xbf0dee07	-0.55441326
3	0x3f024943	0.5089304
4	0xbe38c2d0	-0.18043065
5	0xbebcf7c0	-0.36907768
6	0x3ebd4be3	0.3697196
7	0x3ee529d7	0.44758484
8	0x3dc1b598	0.094584644
9	0xbcad2676	-0.021136504
10	0x3eba8dec	0.36436403
11	0x3eca707c	0.39538944
12	0xbc213419	-0.009839081
13	0xbe26cc55	-0.16288884
14	0x3ec031fb	0.37538132
15	0xbec5a96d	-0.38605824
16	0xbecef903	-0.40424356
17	0x3e181816	0.14852938
18	0x3e4070db	0.18793051
19	0x3ecc4f4e	0.39904255
20	0x3eccb86a	0.39984447
21	0x3e1917fc	0.14950556
22	0x3e75fafe	0.24021527
23	0xbdb497d3	-0.08818021
24	0xbf2b8289	-0.66996056
25	0xbf0ce753	-0.5504047
26	0xbf0dd6b1	-0.5540572
27	0xbee1535c	-0.4400891
28	0x3dc76927	0.09736853
29	0x3ee7e47f	0.45291516
30	0x3da3801d	0.0798342
31	0x3eaaeb67	0.33382723
32	0x3d94bd13	0.072626255
33	0x3eb4db5a	0.35323602
34	0x3ea2623e	0.31715578
35	0xbee34e3a	-0.4439562
36	0x3e666798	0.22500455
37	0xbedf73f9	-0.43643168
38	0x3e3179a9	0.17331566
39	0xbebbc26e	-0.36671776
40	0xbe2d2018	-0.16906774
41	0x3ee4a0f5	0.4465405
42	0xbeecf054	-0.46277106
43	0xbe023a3a	-0.12717524
44	0x3eec9544	0.4620763
45	0xbec392de	-0.38197988
46	0x3e2e064e	0.16994593
47	0x3de6ba28	0.11265975
48	0x3ea4b52c	0.32169473
49	0x3ee3b01d	0.444703
50	0x3e849b66	0.2589981
51	0x3dab803a	0.08374067
52	0xbdd5938e	-0.104285344
53	0x3d50435f	0.0508455
54	0x3c182035	0.0092850225
55	0x3e8a1e33	0.26976165
56	0xbeb0b3cc	-0.34512174
57	0x3e94cc9b	0.29062352
58	0x3e66bb52	0.22532395
59	0xbf285fed	-0.6577137
60	0x3ef8d443	0.48599443
61	0x3e7ab61e	0.24483535
62	0xbea60a24	-0.32429612
63	0x3e950a08	0.29109216
64	0x3e056e0d	0.13030262
65	0x3ed6235c	0.41823852
66	0xbd884cd4	-0.06655279
67	0xbbdabd70	-0.0066754147
68	0x3edcfa9e	0.43159956
69	0x3c92695f	0.01787251
70	0x3daa9944	0.08330014
71	0xbe0ef87c	-0.13961977

conv1.bias f4 [8]
0	0x3df11161	0.11770893
1	0xbd70e1e8	-0.05880919
2	0xbc9d6fd6	-0.019218367
3	0xbde445ba	-0.11146112
4	0xbd9b8de8	-0.07595426
5	0x3ea3d502	0.3199845
6	0x3d99c8a9	0.07508976
7	0x3e8891b6	0.2667367

conv2.weight f4 [16, 8, 3, 3]
0	0x3c9d915c	0.019234352
1	0xbcdab34c	-0.026696824
2	0xbdfc399f	-0.12315678
3	0xbd01b7ca	-0.031669416
4	0xbe694929	-0.22781815
5	0xbe2e5ea9	-0.17028297
6	0x3da7c8ae	0.081925735
7	0x3dd84f71	0.10562027
8	0x3d7ea81c	0.06217204
9	0x3cd99d06	0.026564132
10	0xbd7644cb	-0.0601242
11	0x3d2e449f	0.04254591
12	0x3d7c1725	0.06154551
13	0xbe6e3fe7	-0.23266564
14	0xbe5f55b2	-0.21810034
15	0xbe866499	-0.26248625
16	0xbcda2c46	-0.02663244
17	0xbdadaec9	-0.08480603
18	0x3e086324	0.13319069
19	0x3e0d8643	0.13820748
20	0x3e18a3ff	0.1490631
21	0x3eedf71e	0.46477598
22	0x3e1ba065	0.15197904
23	0xbde546bd	-0.11195133
24	0xbe4f35a2	-0.20235303
25	0xbe6ac3de	-0.2292628
26	0xbc555821	-0.0130215
27	0x3e8573dc	0.26064956
28	0x3e8b81c1	0.27247432
29	0xbdadca05	-0.08485798
30	0x3d1033c4	0.035205618
31	0xbe46d34b	-0.1941654
32	0xbd9b0f9d	-0.07571337
33	0xbe34ccc6	-0.1765624
34	0x3e6d393a	0.23166361
35	0x3e975d35	0.295633
36	0x3eb1d253	0.34730777
37	0x3e4ba0cd	0.1988556
38	0xbdbb4de8	-0.09145719
39	0xbce0444b	-0.027376315
40	0x3c537619	0.012906575
41	0x3e18ef09	0.14934935
42	0xbd8b2592	-0.06794275
43	0x3e2a3487	0.166216
44	0xbda8642f	-0.082222335
45	0x3e63c2a2	0.22242215
46	0x3d9be070	0.076111674
47	0xbdbdca2c	-0.09267077
48	0x3d8cc98d	0.0687438
49	0xbda00112	-0.07812704
50	0xbe4c4f81	-0.19952203
51	0xbdcf5b7d	-0.10124872
52	0x3e32cc0d	0.17460652
53	0x3e39fbc7	0.18162452
54	0x3e14fe54	0.14550143
55	0x3e013834	0.12619096
56	0xbcaac9ad	-0.02084812
57	0xbded754e	-0.1159464
58	0xbe0222ce	-0.1270859
59	0xbe27ccd7	-0.16386734
60	0xbd15c10f	-0.03656107
61	0x3d8c9a5e	0.06865381
62	0x3ca0f0b2	0.019646022
63	0xbce35236	-0.027749162
64	0x3e0130a6	0.12616214
65	0xbd98564f	-0.07438337
66	0xbce50ddb	-0.027960708
67	0xbe1d47e9	-0.15359463
68	0xbe383bac	-0.17991513
69	0xbe4006d8	-0.1875261
70	0xbd16511d	-0.03669845
71	0x3db84b9e	0.08998798
72	0xbe48e48e	-0.19618437
73	0xbdd7200a	-0.10504158
74	0xbdb13950	-0.086535096
75	0x3c54ac88	0.012980588
76	0xbe549125	-0.20758493
77	0xbe3e6bf5	-0.1859587
78	0x3d90e1b6	0.07074301
79	0x3d2b64ab	0.04184405
80	0x3d1724a3	0.036900174
81	0xbc902de3	-0.017600005
82	0x3c0d746c	0.008633714
83	0x3cdff4ac	0.027338348
84	0xbeaa17b5	-0.33221212
85	0xbe20ad4b	-0.15691106
86	0xbc2bed16	-0.010493537
87	0xb9bd3f44	-0.00036096026
88	0xbd9d5ba3	-0.07683494
89	0xbd8d07ef	-0.06886279
90	0x3e43f7cb	0.19137494
91	0x3e5788cf	0.21048282
92	0xbe03acca	-0.12858883
93	0x3ce0f461	0.027460279
94	0x3d4b4ad9	0.049631927
95	0x3e732e78	0.23748195
96	0x3e4155c3	0.18880372
97	0x3de52d9b	0.11190339
98	0x3df8e034	0.12152138
99	0xbe64eb52	-0.22355393
100	0xbe55721d	-0.20844312
101	0xbe8166ba	-0.25273687
102	0xbdfd7c8d	-0.12377272
103	0x3e300c10	0.17192101
104	0x3e76b04c	0.2409069
105	0x3e004afb	0.12528603
106	0x3e859859	0.26092795
107	0x3daccb27	0.08437186
108	0xbd4fcfe5	-0.050735373
109	0xbcf1c958	-0.029514953
110	0x3d0ce00d	0.03439336
111	0xbe0c953e	-0.13728806
112	0x3ddf1aa5	0.10893754
113	0xbdca0790	-0.09864724
114	0x3d937c61	0.07201458
115	0xbe06bcf2	-0.13158014
116	0xbe39e7f0	-0.18154883
117	0xbcc177ba	-0.02361666
118	0xbd03429a	-0.032045938
119	0xbdc0c63c	-0.0941281
120	0xbe3e0866	-0.18557891
121	0x3db74c73	0.089501284
122	0x3e1098b2	0.14120749
123	0x3e80f3f6	0.25186127
124	0x3db31d3e	0.08745812
125	0x3d624387	0.05524018
126	0xbe5bf119	-0.2147869
127	0xbe805d4c	-0.2507118
128	0xbe6fd350	-0.23420453
129	0xbc2ef159	-0.010677659
130	0xbe54ccd1	-0.20781256
131	0xbdbbafe4	-0.09164408
132	0x3cce0c90	0.025152475
133	0xbc99553a	-0.018717397
134	0x3da7c6eb	0.081922375
135	0x3dabff7f	0.083983414
136	0xbd89ffc3	-0.06738236
137	0xbb33c69d	-0.0027431615
138	0xbe888309	-0.26662472
139	0xbd26a758	-0.040686935
140	0x3d03e491	0.0322004
141	0x3e5e5ab0	0.21714282
142	0x3ceae512	0.028673682
143	0xbd176f11	-0.036971156
144	0x3d9444aa	0.07239659
145	0xbdbf4e03	-0.093410514
146	0x3d8b4494	0.068001896
147	0x3e60129d	0.218821
148	0x3dd60bce	0.1045147
149	0x3d8598a6	0.06523256
150	0xbe6db50d	-0.23213597
151	0xbdc9ee6b	-0.09859928
152	0xbe0d0b8a	-0.13773933
153	0xbda276dd	-0.079328276
154	0xbe2fc160	-0.1716361
155	0xbe7e15fb	-0.24813072
156	0x3da0e446	0.0785604
157	0xbcf7d18a	-0.030251283
158	0xbd854bd1	-0.065086015
159	0x3e82ade5	0.25523296
160	0x3dd7072c	0.10499415
161	0x3d32670c	0.043555304
162	0xbd048c9f	-0.03236067
163	0x3c8ba077	0.017044289
164	0xbd4bbaf4	-0.04973884
165	0x3d47cb2a	0.048777737
166	0xbd743e99	-0.05963001
167	0x3c4d1014	0.01251604
168	0x3eabd3ed	0.33560124
169	0x3e8c7eae	0.274404
170	0x3e9290d7	0.2862613
171	0x3deba1d3	0.11505475
172	0x3d48879f	0.048957463
173	0xbe2c6205	-0.16834266
174	0xbdc636ae	-0.09678398
175	0x3de1d52a	0.11026986
176	0x3d90753c	0.07053611
177	0xbe4fa401	-0.20277406
178	0xbe494fd4	-0.19659358
179	0x3d008ecb	0.031386178
180	0xbe507ed5	-0.20360883
181	0xbae80226	-0.0017700836
182	0xbd9bfd4b	-0.07616671
183	0xbe37a4f9	-0.17934026
184	0xbe3048d9	-0.17215289
185	0x3d5124b0	0.05106038
186	0xbe85ad52	-0.26108795
187	0xbda0ee91	-0.07858003
188	0xbde76e3b	-0.11300322
189	0x3df1be86	0.118039176
190	0xbdba88ab	-0.091080986
191	0xbd20c8ad	-0.03925388
192	0xbc9cecb3	-0.019155836
193	0x3dceac33	0.10091438
194	0x3d580db2	0.052747436
195	0x3bed3290	0.0072386935
196	0x3da8085b	0.08204719
197	0xbba4d227	-0.005029935
198	0xbdc70419	-0.097175784
199	0x3bccd713	0.006251225
200	0xbd50c697	-0.05097064
201	0x3d4b1978	0.049584836
202	0x3d8dbaf5	0.06920425
203	0x3d4ffc3e	0.050777666
204	0xbe9ef5bd	-0.31046858
205	0xbe7fe6f8	-0.24990451
206	0xbe8327e0	-0.2561636
207	0xbd0507d1	-0.032478157
208	0xbe0e0319	-0.13868369
209	0xbe877aea	-0.26460963
210	0xbc8e8300	-0.01739645
211	0xbdb31eaa	-0.08746083
212	0xbb78f52a	-0.0037987926
213	0x3dad86ab	0.084729515
214	0x3e24bc6c	0.16087502
215	0x3d8c540e	0.0685197
216	0x3e0201de	0.12696025
217	0xbe5674f7	-0.20943056
218	0x3df96095	0.12176625
219	0xbb89cc67	-0.004205275
220	0xbdf0a8ae	-0.11750923
221	0xbddf13a5	-0.10892419
222	0x3da91dd2	0.08257641
223	0x3d3751a8	0.044755608
224	0xbe1e660e	-0.15468618
225	0xbc42f2ab	-0.011898677
226	0x3e022d4d	0.12712593
227	0x3cc71e2a	0.024306376
228	0xbe8f4312	-0.27980858
229	0x3dce7a3a	0.100819066
230	0x3d8b8a93	0.0681354
231	0xbece129c	-0.40248573
232	0xbd99eee7	-0.0751627
233	0xbd2f1321	-0.042742852
234	0x3d5f2331	0.05447692
235	0xbdc122b6	-0.09430449
236	0x3df95382	0.12174131
237	0xbda2e24b	-0.07953318
238	0x3df13add	0.117788054
239	0x3e8250b4	0.25452197
240	0xbe13681b	-0.14395182
241	0x3a741034	0.0009310276
242	0x3e2adb0b	0.16685121
243	0xbcc0550b	-0.023478052
244	0xbe19753b	-0.14986126
245	0x3e4fd91c	0.20297664
246	0xbeaacd34	-0.33359683
247	0x3d634738	0.05548784
248	0x3e4c4803	0.19949345
249	0xbe516dc8	-0.20452034
250	0xbe73ebc9	-0.23820414
251	0xbe256153	-0.16150407
252	0x3c049b47	0.008093662
253	0x3eb09af4	0.3449322
254	0x3e6497a7	0.22323476
255	0xbd047571	-0.032338563

conv2.bias f4 [16]
0	0xbe310bc0	-0.17289639
1	0xbe4abce3	-0.19798617
2	0xbe07f29e	-0.13276145
3	0x3ccf22a3	0.02528507
4	0x3d490fbb	0.049087267
5	0xbe31eacf	-0.17374729
6	0xbe5a88a8	-0.21341193
7	0xbcd7006e	-0.026245322
8	0x3ad69777	0.0016372044
9	0xbd93477a	-0.071913674
10	0x3d48ed4d	0.049054433
11	0xbe963b1a	-0.29341966
12	0xbe46b9b0	-0.19406772
13	0xbce2536b	-0.027627667
14	0xbdd6726a	-0.104710415
15	0x3d83cd8a	0.06435688

fc1.weight f4 [10, 784]
0	0x3ce50037	0.027954204
1	0xbc8ce71d	-0.017200047
2	0xbc44c094	-0.012008805
3	0x3c8e4f45	0.017371783
4	0xbdacbc67	-0.084343724
5	0xbcb53d7a	-0.02212404
6	0xbbe1f0a1	-0.0068951403
7	0x3c822577	0.015887005
8	0xbc1306d5	-0.008973797
9	0x3ccb6d52	0.024832401
10	0xbc320bbb	-0.010867055
11	0xbd43d89b	-0.047813993
12	0xbde4e1ea	-0.11175902
13	0xbd607a72	-0.054804273
14	0x3d51645c	0.0511211
15	0x3cfdc9af	0.03097996
16	0x3ce49b25	0.02790601
17	0xbe4b92f5	-0.19880278
18	0xbe385a5c	-0.1800322
19	0xbe677f52	-0.22607163
20	0x3c3154c9	0.010823437
21	0x3d806aba	0.062703565
22	0xbc195c52	-0.00936039
23	0xbcef7f50	-0.029235512
24	0xbc633de2	-0.0138697345
25	0x3c8638fc	0.016384594
26	0xbe15783b	-0.14596646
27	0x3c81c451	0.015840681
28	0x3d291177	0.04127642
29	0xbdb1d62b	-0.086834274
30	0xbc8d0963	-0.01721639
31	0x3ca23696	0.01980142
32	0x3d19be23	0.037534844
33	0x3dcbdd2b	0.09954294
34	0x3e0b9e96	0.13634714
35	0x3c2f140c	0.010685932
36	0xbd5c127e	-0.053728573
37	0xbe2e96f7	-0.17049776
38	0xbcb55925	-0.022137234
39	0x3d9bf79c	0.07615587
40	0x39bca62a	0.00035981956
41	0xbc93e375	-0.018052796
42	0x3d00ad6a	0.03141538
43	0x3b609f77	0.0034274736
44	0xbcd95cdd	-0.026533538
45	0xbc843104	-0.016136654
46	0xbd6b4af7	-0.05744454
47	0xbc8c2c3b	-0.017110934
48	0xbd659ae0	-0.056055903
49	0xbcd1798e	-0.025570657
50	0xbdad4795	-0.08460919
51	0x3c4871fd	0.012234208
52	0xbd13fc6f	-0.03612941
53	0x3bf13e64	0.007362174
54	0xbaec1130	-0.0018010493
55	0xbd2ad30f	-0.041705187
56	0xbcc0a044	-0.02351392
57	0x3c767456	0.015042385
58	0x3cf17240	0.029473424
59	0x3d09a554	0.033604935
60	0x3daaf629	0.083477326
61	0x3c885043	0.016639834
62	0x3bb65b39	0.005565074
63	0xbd74b5ef	-0.059743818
64	0x3c961f8c	0.01832559
65	0x3dc3c1de	0.095584616
66	0x3b9a8e6f	0.0047166864
67	0xbe1e2283	-0.15442853
68	0xbc97235c	-0.018449478
69	0xbd0c8148	-0.03430298
70	0x3d45bf48	0.048278123
71	0x3daa6bcf	0.08321344
72	0x3d3ac1e8	0.04559508
73	0xbe7e9c6c	-0.24864358
74	0xbd277b78	-0.040889233
75	0x3c811988	0.015759245
76	0xbe80fbc7	-0.2519209
77	0x3dc00101	0.093751915
78	0xbd33ff9b	-0.043944936
79	0xbcc3d97b	-0.023907414
80	0x3cb19f8d	0.021682525
81	0x3cd9dc0c	0.026594184
82	0x3d7881f1	0.060670797
83	0xbeaef72b	-0.3417295
84	0xbd9cb0a5	-0.0765088
85	0xbda6d372	-0.08145799
86	0xbe0a26d7	-0.13491379
87	0xbdad9458	-0.0847556
88	0x3d3c52cf	0.04597741
89	0xbcad176f	-0.021129338
90	0x3c88ec69	0.016714292
91	0x3c97eb23	0.01854474
92	0xbdcc8fdf	-0.09988379
93	0xbe124c5d	-0.14286943
94	0xbe9bd6e7	-0.30437395
95	0xbda47073	-0.080292605
96	0xbd7d5428	-0.061847836
97	0x3cbfac57	0.023397608
98	0x3cbd241b	0.023088505
99	0xbc5c4720	-0.013444692
100	0xbdc81841	-0.09770251
101	0xbdc487bf	-0.09596204
102	0x3d517047	0.051132467
103	0xbd811a24	-0.06303814
104	0x3d243683	0.04009105
105	0xbd73d5c9	-0.059530053
106	0xbd014bfc	-0.031566605
107	0x3c606df7	0.013698093
108	0xbdcc3df7	-0.09972756
109	0xbd510520	-0.05103028
110	0xbc9c0d55	-0.019049326
111	0x3bf7bf4c	0.007560646
112	0x3bcc7b68	0.006240297
113	0x3d7bd25b	0.061479907
114	0xbda88915	-0.08229271
115	0xbda85bd9	-0.082206436
116	0xbd0b5252	-0.034014054
117	0xbbac7a37	-0.0052635926
118	0xbd4e7e7a	-0.050413586
119	0x3c291f12	0.010322349
120	0xbd48b4ef	-0.049000677
121	0xbe0260a4	-0.12732178
122	0xbe67e09c	-0.22644275
123	0xbe1b8bf1	-0.15190102
124	0xbc0e5ab0	-0.008688614
125	0x3d2f443c	0.042789683
126	0xbd816bc4	-0.06319383
127	0xbc3d12ec	-0.011540156
128	0x3cbb3f19	0.022857236
129	0x3ca51e89	0.020156162
130	0xbd427b23	-0.047480714
131	0x3c2cb0d3	0.010540205
132	0x3cee046a	0.02905484
133	0xbe13f92f	-0.14450525
134	0x3b4d7051	0.0031347463
135	0xbcba046a	-0.022707183
136	0x3c350226	0.0110478755
137	0x3d02955e	0.03188073
138	0xbd65ddd5	-0.05611976
139	0xbcf1262f	-0.029437153
140	0xbcac7176	-0.021050196
141	0xbdac017a	-0.08398719
142	0xbda47839	-0.08030743
143	0xbde1d497	-0.110268764
144	0xbdc4db36	-0.09612124
145	0xbd162ead	-0.036665607
146	0xbe13f3b1	-0.1444843
147	0x3da1cd01	0.079004295
148	0x3d860758	0.065443695
149	0x3c9eb48a	0.019373197
150	0x3cc60e3b	0.024176707
151	0x3d3f4ca7	0.04670396
152	0xbc0a91fe	-0.008457659
153	0xbbb74451	-0.0055928607
154	0x3d2d6217	0.042329874
155	0xbe43d66f	-0.19124769
156	0xbe891058	-0.26770282
157	0xbd8d2ade	-0.06892942
158	0xbd75956e	-0.05995696
159	0xbe383d4f	-0.17992137
160	0xbdb3a31d	-0.08771346
161	0xbcfcb6d8	-0.030848905
162	0xbdcbd2e3	-0.09952333
163	0xbda65446	-0.08121543
164	0x3d5d5571	0.05403656
165	0x3cea452a	0.028597433
166	0xbe0e926d	-0.13923045
167	0xbd3c0cfa	-0.045910813
168	0xbcb28ed8	-0.021796629
169	0xbe1c1a5b	-0.15244429
170	0xbdfb6243	-0.12274601
171	0x3d6d49f8	0.05793187
172	0x3e06134c	0.13093299
173	0x3d0b429a	0.033999063
174	0xbca76b8c	-0.020437025
175	0x3d0bb5f3	0.034109067
176	0xbd73af4a	-0.05949334
177	0x3c6ccb4f	0.014452769
178	0xbd32432a	-0.043521084
179	0xbcf9d1ed	-0.030495608
180	0x3d96bf9b	0.073607646
181	0x3d529e08	0.05142024
182	0x3cb7ed55	0.022452036
183	0x3d1adafa	0.03780649
184	0x3d6c56fd	0.057700146
185	0xbdac56a5	-0.08414964
186	0xbd6e345c	-0.058155403
187	0xbd335ec3	-0.043791544
188	0x3c4bcc16	0.012438795
189	0x3d823b91	0.06359018
190	0xbd0ea596	-0.034825884
191	0x3c7ccc8b	0.015429626
192	0xbde10d1b	-0.10988828
193	0xbe468e6d	-0.19390269
194	0xbdc400d1	-0.09570468
195	0xbd39d40d	-0.045368243
196	0x3bfdcedb	0.0077456064
197	0x3b5231c7	0.0032073127
198	0x3c34ee7b	0.011043186
199	0x3d4ed749	0.05049828
200	0xbceba806	-0.028766643
201	0xbc1ed33c	-0.009693917
202	0x3d8bd812	0.068283215
203	0x3cba4e93	0.022742545
204	0xbd8cddec	-0.06878266
205	0xbd89b64b	-0.06724223
206	0xbcd71815	-0.0262566
207	0x3d9da2d1	0.076970704
208	0x3d4fad31	0.050702278
209	0x3c8e90de	0.017403062
210	0xbcc12cd9	-0.023580955
211	0xbe2185c9	-0.15773691
212	0xbd89fa72	-0.06737222
213	0x3b1aac75	0.0023601328
214	0xbc244a70	-0.010027513
215	0x3cd58fd0	0.026069552
216	0xbd0c4338	-0.034243792
217	0xbd3b9717	-0.045798387
218	0xbebcb9dc	-0.3686055
219	0xbdd7e204	-0.10541156
220	0x3c250937	0.010072998
221	0xbce90d58	-0.028448746
222	0xbe16f0ab	-0.14740245
223	0xbd9f015a	-0.0776393
224	0x3cbd07c8	0.023075
225	0xbdc22e4e	-0.09481488
226	0xbe13ed9c	-0.1444611
227	0xbe0955fb	-0.13411705
228	0xbdd516c4	-0.10404733
229	0xbe08c919	-0.13357963
230	0xbe0dfeab	-0.1386668
231	0x3d183345	0.03715827
232	0xbd60d87f	-0.054893967
233	0xba8db9ab	-0.001081278
234	0x3d0f621d	0.035005677
235	0xbd5c8d26	-0.053845547
236	0xbbdc3f44	-0.006721409
237	0xbd1f442b	-0.03888337
238	0x3caa878b	0.020816585
239	0xbc8dfca6	-0.017332386
240	0x3bf525e5	0.007481324
241	0xbb0bd078	-0.0021333974
242	0xbd568845	-0.05237605
243	0xbd9677ab	-0.073470436
244	0x3d09759e	0.033559434
245	0xbb045019	-0.0020189343
246	0xbcc66e87	-0.024222625
247	0xbcf859d9	-0.03031628
248	0xbd8f25d4	-0.06989637
249	0x3d1222a6	0.035677575
250	0xbd7a956e	-0.061177664
251	0xbc53d99a	-0.012930298
252	0x3c99565f	0.018717943
253	0xbcae0b8b	-0.021245738
254	0xbdf29eb8	-0.118466794
255	0x3c14235a	0.009041632

fc1.bias f4 [10]
0	0x3d6979bd	0.057000864
1	0x3d5c1be7	0.053737547
2	0x3d1f8745	0.038947362
3	0x3b00274b	0.001955467
4	0xbd70d78c	-0.05879931
5	0x3d62bce4	0.05535592
6	0x3bc6e063	0.0060692295
7	0x3bb22485	0.0054364824
8	0xbda26799	-0.07929916
9	0x3c7125db	0.014718498
