backend/model.pth (torch, 38708 bytes, 6 tensors)

conv1.weight f4 [8, 1, 3, 3]
0	0x3d9c38ca	0.07628019
1	0x3ed1f480	0.4100685
2	0xbeb8c385	-0.3608667
3	0x3c8c8e95	0.017157832
4	0x3ebc6d5b	0.36802182
5	0x3e0b1558	0.1358236
6	0x3c83fa75	0.016110638
7	0x3ea862d7	0.3288791
8	0x3ec5cac4	0.3863126
9	0xbe321de9	-0.17394222
10	0x3e6b5ae3	0.2298389
11	0x3f089a96	0.5336088
12	0x3eda3a45	0.4262258
13	0x3e4506cc	0.19240874
14	0xbd7c7648	-0.06163624
15	0xbdff7faf	-0.124755256
16	0xbe0e1bc6	-0.13877782
17	0xbe9f850d	-0.31156197
18	0x3ea35ac6	0.31905192
19	0xbe44a699	-0.19204177
20	0xbf0eec6c	-0.558295
21	0x3e9947e0	0.2993765
22	0xbee29e0b	-0.44261202
23	0xbeec75c6	-0.46183604
24	0x3f3b654e	0.73201454
25	0x3dc1426a	0.094364956
26	0x3e2f5ee5	0.17126043
27	0x3eff7868	0.4989655
28	0x3e7c2535	0.24623568
29	0xbe807f73	-0.25097236
30	0xbdb252e4	-0.087072164
31	0x3eddb262	0.43300158
32	0x3eaf67b7	0.34258816
33	0x3d69d0de	0.057083957
34	0x3dc895b1	0.09794176
35	0x3e1dc28e	0.15406248
36	0xbe4f6ba3	-0.20255904
37	0xbf26ab4a	-0.65105116
38	0xbf127be3	-0.57220286
39	0xbeff8f69	-0.499141
40	0xbd9803bc	-0.07422587
41	0xbdced902	-0.10099985
42	0x3e4057f2	0.18783548
43	0x3f149447	0.58038753
44	0x3ebd9c28	0.370332
45	0xbe844770	-0.25835752
46	0x3decb434	0.115578085
47	0x3d1eb690	0.038748324
48	0xbf0bd669	-0.5462404
49	0x3c04b7fe	0.008100508
50	0x3ef51647	0.4786856
51	0x3e9d76d4	0.3075472
52	0xbd6ec16a	-0.058289923
53	0x3e3d43f5	0.18482955
54	0x3de82a35	0.11336175
55	0x3c28996a	0.010290483
56	0x3eed6ed6	0.46373624
57	0x3ec2f8ac	0.38080347
58	0x3e969998	0.29414058
59	0x3c597cc1	0.013274373
60	0x3e5690ae	0.20953628
61	0x3ea726fb	0.32646927
62	0xbf08a6cc	-0.5337951
63	0x3f15cf00	0.5851898
64	0x3de6998b	0.11259755
65	0xbf0e6ae4	-0.5563185
66	0x3e3282e2	0.1743274
67	0xbe0b71f0	-0.13617682
68	0xbe794c46	-0.24345502
69	0x3ed23810	0.41058397
70	0xbe39e209	-0.18152632
71	0xbef28673	-0.47368202

conv1.bias f4 [8]
0	0x3ee6ce80	0.45079422
1	0x3e6b4ae3	0.22977786
2	0x3e0214c6	0.12703237
3	0x3e3a79e1	0.18210556
4	0x3e80705d	0.25085726
5	0xbdf6bc59	-0.12047643
6	0x3ef34c01	0.47518924
7	0x3d808992	0.062762395

conv2.weight f4 [16, 8, 3, 3]
0	0xbd30deb5	-0.04318114
1	0x3e00428b	0.12525384
2	0xbde792a2	-0.11307265
3	0x3ca87dc4	0.020567782
4	0x3dc5f744	0.09666303
5	0x3dac8d2b	0.08425363
6	0xbe22d890	-0.15902925
7	0x3d4b82ee	0.04968541
8	0xbdcb2474	-0.09919062
9	0x3e60a20b	0.21936814
10	0xbdfc4732	-0.12318267
11	0xbe72bd53	-0.23705034
12	0xbd8b15eb	-0.0679129
13	0x3b363224	0.0027800882
14	0xbe1fabc4	-0.15592867
15	0x3d44b5ae	0.048024826
16	0x3df1aeea	0.1180094
17	0x3df7a9bf	0.120929234
18	0x3c6bee86	0.01440013
19	0x3e2620e0	0.16223478
20	0x3ea7e513	0.32791957
21	0x3d911d6e	0.070856914
22	0xbccbef42	-0.02489436
23	0xbc43dc5f	-0.011954396
24	0xbdc12e8c	-0.09432706
25	0xbde51aa5	-0.11186723
26	0xbe2dd219	-0.16974677
27	0x3d9d7a8d	0.0768939
28	0x3e597575	0.21236213
29	0x3d89edc3	0.067348026
30	0xbdf753cd	-0.120765306
31	0xbd11f491	-0.035633627
32	0x3d019e6d	0.031645227
33	0xbdc539da	-0.09630175
34	0xbba0a40e	-0.0049023693
35	0xbcfa45fc	-0.03055095
36	0xbdb649d0	-0.08900797
37	0xbdb18c92	-0.0866939
38	0xbd7b14b0	-0.061299026
39	0x3da23e66	0.07922058
40	0xbde78158	-0.11303967
41	0xbe970f9d	-0.295041
42	0x3dc48d9f	0.095973246
43	0x3db6361f	0.088970415
44	0xbd2cf9dc	-0.042230472
45	0x3de706d9	0.11280603
46	0x3d2c52b8	0.042071074
47	0xbc745117	-0.014911911
48	0xbd9434ca	-0.07236631
49	0x3dfc6409	0.12323768
50	0x3e22d09e	0.15899894
51	0x3d1b97ad	0.037986446
52	0x3d96e93b	0.07368704
53	0x3e3ae753	0.18252306
54	0x3dbe2412	0.092842236
55	0x3ca75a02	0.020428661
56	0x3b97ef24	0.004636662
57	0xbe6cc3a5	-0.23121507
58	0xbe0a500a	-0.13507095
59	0x3d3d2107	0.046174075
60	0xbcd7d80f	-0.026348142
61	0xbdc11e97	-0.09429663
62	0xbda9d4bf	-0.08292531
63	0xbe3ac04b	-0.18237416
64	0xbdff74c7	-0.124734454
65	0xbdaa88f1	-0.08326901
66	0x3d1aea3c	0.03782104
67	0xbea5819b	-0.32325444
68	0xbe3537f5	-0.17697127
69	0xbdc5faf5	-0.09667007
70	0x3cb253bf	0.021768449
71	0x3ccb5ee7	0.024825526
72	0xbb5d05e5	-0.0033725437
73	0x3d4e138a	0.050311603
74	0xbde48372	-0.11157884
75	0x3dcbd187	0.099520735
76	0x3dbc30ee	0.0918902
77	0x3c92e02c	0.01792916
78	0xbaf0e902	-0.0018379989
79	0xbd815e2c	-0.0631679
80	0xbd3062c8	-0.043062955
81	0x3ca7925c	0.020455532
82	0x3d8e6794	0.0695335
83	0x3da6bbf9	0.08141322
84	0xbdae7c53	-0.08519807
85	0x3daf1184	0.08548263
86	0x3d04d455	0.032429058
87	0x3e555042	0.20831397
88	0x3dbd462d	0.092419006
89	0xbdd0213d	-0.1016259
90	0xbeac3bda	-0.33639413
91	0xbe46017f	-0.19336508
92	0x3cc4c046	0.024017464
93	0xbefd2403	-0.49441537
94	0xbe0081be	-0.12549493
95	0xbd64f799	-0.05590019
96	0xbdeb4d8a	-0.11489399
97	0x3de559e5	0.11198787
98	0x3d82c5de	0.063853964
99	0xbdb696c7	-0.08915477
100	0x3df91988	0.12163073
101	0xbd2a3419	-0.04155359
102	0x3e0e17aa	0.13876215
103	0x3e2b1737	0.16708075
104	0xbda7fc48	-0.08202416
105	0x3e2fdb3b	0.17173474
106	0xbd4d8c97	-0.050182905
107	0xbdc6f113	-0.0971395
108	0xbcc75cd3	-0.024336254
109	0x3d3ff78a	0.04686693
110	0xbe99b65c	-0.30021942
111	0xbd504b94	-0.050853327
112	0xbe6644f2	-0.22487238
113	0xbe75061f	-0.23928116
114	0xbec338ac	-0.38129175
115	0xbe67c918	-0.22635305
116	0xbe3babcb	-0.18327253
117	0xbd17e820	-0.037086606
118	0x3cbae38c	0.02281358
119	0xbe2f86e9	-0.17141308
120	0x3e602e8d	0.21892758
121	0x3c30fc27	0.010802305
122	0xbe78378d	-0.24239941
123	0x3dd83fdf	0.105590574
124	0xbe18e09f	-0.14929436
125	0xbe7ca657	-0.24672829
126	0x3cbaa9d9	0.022786068
127	0xbc3f48f0	-0.0116751045
128	0xbd848c87	-0.06472116
129	0xbcc37bb7	-0.023862703
130	0x3d9f550e	0.07779895
131	0x3d8c4bd3	0.068504
132	0x3e29708b	0.16546838
133	0x3e20c6bd	0.15700813
134	0xbe546ad6	-0.2074388
135	0xbef05ea7	-0.46947214
136	0xbe64717a	-0.22308913
137	0x3e179dd1	0.14806296
138	0xbd8e6bb3	-0.06954136
139	0x3df7f0e6	0.121064946
140	0x3dba3f37	0.090940885
141	0x3d31497d	0.043282975
142	0x3d1079b6	0.035272323
143	0x3d3c7452	0.04600937
144	0x3e0fbf22	0.14037755
145	0x3d4cd741	0.05000997
146	0xbe6fd3db	-0.2342066
147	0xbd87c378	-0.066290796
148	0x3e8264ed	0.25467625
149	0x3dba14be	0.090859875
150	0xbd6d2c79	-0.05790374
151	0x3de7bce9	0.11315329
152	0x3e40ed9d	0.18840642
153	0xbd8e0285	-0.06934074
154	0xbe235ad1	-0.15952612
155	0xbd158334	-0.03650208
156	0xbe38bc26	-0.18040523
157	0xbe3d79b4	-0.18503457
158	0xbaa964c6	-0.001292371
159	0xbcd5b2d2	-0.026086245
160	0xbd2da126	-0.04239001
161	0xbcc09ecd	-0.023513222
162	0x3e64484b	0.22293203
163	0x3eb2a9c9	0.3489516
164	0x3de921df	0.113834135
165	0xbd979033	-0.07400551
166	0x3e23975f	0.15975712
167	0x3f0af1ff	0.54275507
168	0xbe0a2674	-0.13491231
169	0xbd8abb1f	-0.06773972
170	0x3e175143	0.14777093
171	0x3e76c55c	0.24098724
172	0xbddcbf12	-0.10778631
173	0xbdd10d34	-0.102075964
174	0x3db7b9ab	0.0897096
175	0x3e5331fc	0.20624536
176	0xbd6a3ce1	-0.057186965
177	0xbe28bdb8	-0.16478622
178	0x3caaf145	0.020867
179	0x3e39a448	0.18129075
180	0xbe21c9b9	-0.15799607
181	0xbd58a5d3	-0.052892517
182	0xbba254ec	-0.004953971
183	0xbed48d32	-0.41513973
184	0xbf0d9a6c	-0.55313754
185	0xbde0b56e	-0.10972105
186	0x3d21cea5	0.039503712
187	0xbec24f10	-0.37950945
188	0xbe380fb5	-0.17974742
189	0x3dd73e06	0.10509877
190	0xbd9e5921	-0.07731844
191	0xbd161ff5	-0.03665157
192	0x3d994669	0.07484133
193	0x3db922b5	0.09039823
194	0xbd04a66c	-0.032385275
195	0x3e26639c	0.16248935
196	0x3e1faa17	0.15592228
197	0x3e1f702c	0.15570134
198	0xbd86eadd	-0.06587765
199	0x3dc1ad73	0.09456911
200	0x3c82be8d	0.015960002
201	0xbe87dbd8	-0.26534915
202	0xbc9d9784	-0.019237287
203	0xbe2a0437	-0.1660317
204	0xbe0e6f56	-0.13909659
205	0xbc47578a	-0.012166867
206	0xbdb95929	-0.09050209
207	0x3d7b8f2d	0.06141584
208	0x3d2cf100	0.042222023
209	0x3e43eef1	0.19134118
210	0xbe8b1b8a	-0.27169448
211	0xbdd9beac	-0.10632071
212	0x3cd89336	0.026437383
213	0xbdae54bf	-0.08512258
214	0xbe74952d	-0.23885031
215	0xbe5a547c	-0.2132129
216	0xbe1b1d83	-0.15147977
217	0xbdcfd236	-0.101475164
218	0xbdb5b090	-0.08871567
219	0x3d88db72	0.06682481
220	0x3ddc74b8	0.1076445
221	0xbbbca961	-0.005757496
222	0x3db78a5d	0.089619376
223	0x3e046beb	0.12931792
224	0xbd84b214	-0.06479278
225	0xbe47e363	-0.19520335
226	0x3e013264	0.12616879
227	0x3df91b7b	0.121634446
228	0xbd202926	-0.039101742
229	0x3e40ca4a	0.18827167
230	0x3c360b4c	0.011111092
231	0x3c917ed9	0.017760681
232	0x3bdd136e	0.006746701
233	0x3db3231b	0.0874693
234	0xbe03d284	-0.12873274
235	0xbe8f4f4e	-0.27990192
236	0x3dda02fe	0.10645102
237	0xbe6d2333	-0.23157959
238	0x3dbaede9	0.09127409
239	0x3e7183ba	0.23585406
240	0x3d1a78e7	0.037712958
241	0x3da9b0b9	0.0828566
242	0x3e06b65a	0.13155499
243	0xbe1bd112	-0.15216473
244	0xbd3768d8	-0.04477772
245	0x3c2104b7	0.009827784
246	0xbd546ada	-0.051859714
247	0x3d72266e	0.05911868
248	0xbd752907	-0.05985358
249	0x3d1ebeb1	0.038756076
250	0x3c92e6fb	0.017932406
251	0x3d90bdc2	0.070674434
252	0xbe44abbc	-0.19206136
253	0xbd6b859f	-0.057500478
254	0xbdaadec0	-0.083432674
255	0xbea9528d	-0.33070794

conv2.bias f4 [16]
0	0xbe5e3fd2	-0.21704033
1	0x3b4cba88	0.003123911
2	0xbaf00999	-0.0018313407
3	0xbe6006ea	-0.21877638
4	0xbdc84e6a	-0.09780581
5	0xbaef65dc	-0.0018264609
6	0xbc4b2383	-0.012398603
7	0x3e0b8c3c	0.13627714
8	0x3cf0f54d	0.029413844
9	0xbb906010	-0.004405983
10	0xbe520fe2	-0.20513871
11	0xbdd07efe	-0.10180472
12	0xbda96eeb	-0.08273109
13	0x3d12e7b5	0.035865504
14	0x3c50f4ae	0.012753649
15	0xbe36a465	-0.17836149

fc1.weight f4 [10, 784]
0	0xbc3293d0	-0.010899499
1	0xbd8bbd23	-0.06823184
2	0xbc33c702	-0.01097274
3	0xbc3a502b	-0.011371653
4	0xbc9ef11e	-0.019402083
5	0xbd218a87	-0.03943875
6	0x3beebefe	0.0072859516
7	0xbce17e81	-0.027526142
8	0xbd18a067	-0.037262347
9	0xbc5c970a	-0.013463745
10	0xbd0fd8b8	-0.03511879
11	0x3d422abd	0.04740404
12	0x3d458b14	0.04822834
13	0xbda377a2	-0.079818025
14	0xbd43e062	-0.04782141
15	0xbc8d2831	-0.017231079
16	0xbd7082d0	-0.058718503
17	0x3c75d00c	0.0150032155
18	0x3ddb5bf2	0.107108966
19	0x3df92100	0.121644974
20	0xbd548f82	-0.051894672
21	0xbcae9503	-0.021311289
22	0x3ce303de	0.027711805
23	0xbdb13b1b	-0.086538516
24	0xbd239c04	-0.03994371
25	0x3d20fd91	0.03930432
26	0x3df9f666	0.122052
27	0x3c996a41	0.018727424
28	0xbd0b33bd	-0.03398489
29	0x3ca882d2	0.020570192
30	0x3cd427d5	0.0258979
31	0xbc6dd091	-0.014515058
32	0xbd8a3bb2	-0.06749667
33	0xbba3dddb	-0.0050008125
34	0x3d58f254	0.052965477
35	0x3d85fcd7	0.06542366
36	0xbaf1cb09	-0.001844735
37	0x3d1afdb2	0.0378396
38	0x3d881666	0.06644897
39	0xbdaf68a9	-0.08564884
40	0xbdc84f4b	-0.09780749
41	0xbd25b15f	-0.040452357
42	0xbcbbb1bb	-0.022911897
43	0x3d547aef	0.05187505
44	0x3c5c0581	0.013429047
45	0x3cbaab5d	0.02278679
46	0xbd0d7dde	-0.034543864
47	0xbd893a5e	-0.06700586
48	0xbdac4d8d	-0.08413229
49	0x3c147df9	0.009063237
50	0xbccb3f2e	-0.0248104
51	0xbd6e1cbb	-0.05813287
52	0xbbf197d5	-0.007372836
53	0xbbce3cd4	-0.0062938724
54	0xbdfcf1b2	-0.12350787
55	0xbd0c207f	-0.03421068
56	0xbd2c31a0	-0.042039514
57	0xbdab4d44	-0.083643466
58	0xbd7ee720	-0.062232137
59	0xbca7ae3c	-0.020468824
60	0xbd1a8c41	-0.037731413
61	0xbd99859f	-0.07496189
62	0x3c429fcd	0.01187892
63	0x3c9412cf	0.018075375
64	0x3d444a43	0.047922384
65	0xbd2481d5	-0.04016288
66	0x3b587ece	0.0033034566
67	0xbd567066	-0.052353285
68	0xbc939c02	-0.018018726
69	0xbc1b139b	-0.0094651235
70	0xbd1aa053	-0.037750553
71	0x3d830392	0.06397165
72	0x3ce23cbc	0.027616851
73	0x3d016829	0.031593475
74	0xbbd2541a	-0.006418717
75	0x3d0b2198	0.033967584
76	0x3d0614d8	0.032734722
77	0xbd27b7c6	-0.040946744
78	0xbbf84186	-0.0075761704
79	0x3d79e562	0.061009772
80	0xbcfb8669	-0.03070374
81	0x3ca5942d	0.020212257
82	0x3d555fcb	0.05209331
83	0x3d4d1ab6	0.0500743
84	0x3c16025d	0.009155837
85	0x3c1ecbf1	0.009692178
86	0xbcd67727	-0.026179863
87	0x3b4a82a2	0.0030900617
88	0x3b7e64e6	0.0038817464
89	0xbc562f4b	-0.013072799
90	0xbdadaa99	-0.084798045
91	0xbc838a0d	-0.016057039
92	0xbd210d94	-0.03931959
93	0xbd217490	-0.039417803
94	0xbd5ab1c5	-0.05339219
95	0x3d09421d	0.033510316
96	0xbdb95a3f	-0.09050416
97	0xbbef60e9	-0.0073052538
98	0xbd2a0a1a	-0.04151354
99	0xbcb59675	-0.02216647
100	0xbcb24163	-0.021759694
101	0xbd3dcdc9	-0.04633883
102	0xbdcd21ce	-0.10016213
103	0x3ce8b177	0.028404934
104	0xbd2497e0	-0.0401839
105	0xbdf341fe	-0.118778214
106	0xbd71410b	-0.05889992
107	0xbd3135c3	-0.04326416
108	0x3d8e77ec	0.06956467
109	0x3d14480f	0.036201533
110	0x3d925044	0.07144216
111	0xbb3d3015	-0.002886777
112	0xbc3ef362	-0.011654707
113	0xbcb5d762	-0.02219743
114	0xbd5f327e	-0.054491512
115	0x3dc3d142	0.09561397
116	0x3e1218db	0.14267294
117	0x3d92497c	0.07142922
118	0x3d46065a	0.0483459
119	0xbcb7195f	-0.022350965
120	0x3d028edd	0.031874526
121	0x3cb1abf1	0.021688433
122	0xbda9affb	-0.08285519
123	0x3c6d9d40	0.014502823
124	0x3c2ffb77	0.010741106
125	0x3d938880	0.0720377
126	0x3c8b60b3	0.017013883
127	0x3d0ca229	0.034334335
128	0x3d60da9c	0.054895982
129	0xbc5a5937	-0.013326935
130	0xbd9d5399	-0.076819606
131	0xbd09f89f	-0.03368437
132	0x3be1bd66	0.006889033
133	0x3cd7f26e	0.026360717
134	0x3d9aea2f	0.07564198
135	0x3daf4055	0.08557192
136	0x3d41c955	0.047311146
137	0xbe304950	-0.17215466
138	0xbe475f45	-0.19469936
139	0xbd57f2ff	-0.052721974
140	0xbc2764a3	-0.010216865
141	0x3c9b2474	0.01893828
142	0xbc37737c	-0.011196967
143	0xbd23acf4	-0.039959863
144	0xbe4ac938	-0.19803321
145	0xbe1660c1	-0.14685346
146	0xbdb4c6f8	-0.08827013
147	0x3c8792d8	0.016549513
148	0xbd7a8e2a	-0.061170734
149	0xba6268ee	-0.00086368516
150	0xbceb6b3e	-0.02873766
151	0xbd72ecfa	-0.05930803
152	0xbda25d39	-0.07927937
153	0xbd462e90	-0.04838425
154	0xbd69e4ec	-0.057103083
155	0xbcec8ff6	-0.02887724
156	0xbd2d043c	-0.042240366
157	0x3ced7835	0.028987983
158	0xbc6cfd80	-0.014464736
159	0x3c6f80f5	0.014618148
160	0xbcedd2e3	-0.029031223
161	0xbc170065	-0.009216403
162	0x3d24b01f	0.040207025
163	0x3cb2644a	0.021776337
164	0xbc313162	-0.010814996
165	0x3b957b7d	0.00456184
166	0x3d889b3a	0.06670232
167	0x3d00dcf3	0.031460714
168	0x3d05f452	0.032703705
169	0x3dc235d8	0.09482926
170	0x3c4d1388	0.012516864
171	0x3cc8dfa4	0.024520703
172	0x3bf5f3e8	0.0075058825
173	0x3c3be4b4	0.011468101
174	0x3bcb73b7	0.0062088626
175	0x3d35c20c	0.04437451
176	0x3cd3d034	0.025856115
177	0x3d7203f7	0.059085812
178	0xbd163524	-0.036671773
179	0x3bb781d6	0.0056001944
180	0x3d4b76be	0.04967379
181	0xbd0f9922	-0.03505815
182	0xbb9e5af0	-0.004832618
183	0x3ddae3c9	0.10687978
184	0xb9a95821	-0.00032299853
185	0xbd69bc0f	-0.057064112
186	0xbd0819fe	-0.033227913
187	0xbc225235	-0.009907295
188	0xbe0edb39	-0.13950814
189	0xbc5372a4	-0.01290575
190	0x3d2c92bb	0.04213212
191	0xbd5fb44a	-0.054615296
192	0xbe1f9387	-0.15583621
193	0xbdc7980f	-0.097458
194	0xbe197810	-0.14987206
195	0xbd0e125e	-0.034685485
196	0x3b8beceb	0.004270186
197	0xbc9436f6	-0.018092614
198	0x3ce61ec7	0.028090848
199	0xbc111b13	-0.008856553
200	0xbcabb7d6	-0.020961683
201	0xbd723e37	-0.059141364
202	0x3d26fdf9	0.04076955
203	0x39703ff4	0.00022912008
204	0xbc99040c	-0.018678688
205	0xbcf3fc01	-0.02978325
206	0xbd5ce474	-0.053928807
207	0x3d4a6d4e	0.049420647
208	0x3d21acdc	0.039471492
209	0xbd0159a8	-0.031579643
210	0x3cc3d895	0.023906985
211	0x3b5356c2	0.0032247757
212	0xbd78e902	-0.06076909
213	0x3cfb678d	0.030689025
214	0xbd657f73	-0.05602975
215	0x3d19c669	0.037542734
216	0x3d282552	0.041051216
217	0x3c33febf	0.010986029
218	0xbc877363	-0.016534513
219	0x3cdcca33	0.026951885
220	0x3c29dfe8	0.010368325
221	0x3d2dbbbc	0.042415366
222	0x3cc8139d	0.024423415
223	0xbe554dd5	-0.20830472
224	0x3d89a409	0.0672074
225	0x3d0e29d5	0.034707863
226	0xbbdc9e08	-0.006732706
227	0x3b8f9fe9	0.0043830764
228	0x3d23b817	0.039970484
229	0x3d5ad33e	0.053424112
230	0xbe14c152	-0.14526871
231	0xbc020428	-0.007935561
232	0x3c997398	0.018731877
233	0x3d8a07cb	0.06739768
234	0xbdc2168b	-0.09476956
235	0x3c35127d	0.011051771
236	0xbd446a94	-0.047953203
237	0xbd2c3866	-0.042045973
238	0x3c648248	0.013947077
239	0x3d0fb4f3	0.035084676
240	0xbcca8432	-0.024721239
241	0xbeb3e335	-0.35134283
242	0xbe9c9e20	-0.3058939
243	0xbd230b40	-0.03980565
244	0x3ca75e70	0.020430773
245	0x3c31f97c	0.010862704
246	0xbd83113b	-0.06399771
247	0xbbc28cd7	-0.0059371996
248	0x3d6d3598	0.05791244
249	0xbd2ee285	-0.042696495
250	0xbd6fbcb5	-0.058529574
251	0xbd947e53	-0.07250657
252	0xbdd3aa2b	-0.10335191
253	0x3b51f60b	0.0032037522
254	0x3c8ed539	0.017435657
255	0xbc430bca	-0.011904666

fc1.bias f4 [10]
0	0xbc354356	-0.011063417
1	0x3d58a05b	0.052887302
2	0x3c063c1a	0.00819304
3	0xbcd50081	-0.026001217
4	0xbd8b01b7	-0.067874365
5	0x3cd3fae6	0.025876474
6	0xbc3374eb	-0.010953168
7	0xbc0d7aca	-0.008635232
8	0xbd93f5e5	-0.07224635
9	0xbd21cce1	-0.03950203
